data/models/ralphi.v2.long.pt (torch, 29302 bytes, 17 tensors)

policy_graph_hap0.bias f8 [1]
00000000: 005d 8148 d595 aabf
-0.05192438612055561

policy_graph_hap0.weight_orig f8 [1, 264]
00000000: a7b8 dcf9 5d87 b53f 1ed9 0d20 ac35 b03f
00000010: 9129 662a 8251 9abf f951 a4eb 4465 9ebf
00000020: bf41 bf66 8e02 a53f ae93 297b 8426 763f
00000030: abd4 ead5 df27 873f b765 746e 35e7 bcbf
00000040: 2693 922c 9eb6 9dbf b475 0879 5158 bfbf
00000050: fd0f c42b 1083 b73f 077e d5f3 fa0c ac3f
00000060: 294d a4c8 e3b9 b8bf 12c4 70ab c391 c2bf
00000070: 6c69 4a6a bbf4 77bf a442 4bec f493 85bf
00000080: 72c1 e283 aea9 893f 4476 35c7 1160 78bf
00000090: bc62 2462 9798 c53f 4491 7d59 d6ff 9d3f
000000a0: 99ca 23df 04f8 b33f b868 3cb6 d4d2 83bf
000000b0: 34e9 ee77 fc30 b9bf cc2f 88ef 8c5d a3bf
000000c0: 2af2 bae3 02de 9a3f 95c8 1c24 e2f8 823f
000000d0: 106e af5b 8c7a b53f f498 6112 8bf8 ab3f
000000e0: 72cc 5d61 822a c0bf 6632 84f1 b015 a2bf
000000f0: 0b52 ecea 9962 91bf 3fd5 7b02 9713 b73f
00000100: 3059 f85a 017d 9b3f 5776 3104 03cf a5bf
00000110: f71b 49be db8c 943f f191 bb17 27ac a8bf
00000120: dd2a 1dc4 58c7 b03f d937 0043 963c 8f3f
00000130: f006 b2b3 1e66 c0bf 87a3 8901 532d b03f
00000140: 4e3e c9d4 8f6b a9bf d4d2 1709 2bc9 b03f
00000150: e4a1 c549 b8a5 b6bf 8dbd 8982 4270 b83f
00000160: 2c85 d67d 28c5 b33f 7298 7996 3a30 ad3f
00000170: ff24 6c12 497e a0bf a9fe 95e3 307b b9bf
00000180: a8a2 8821 376a 913f 65e4 995c 6f4c b3bf
00000190: be32 2eb6 5845 a03f fb38 e8c2 23ae c5bf
000001a0: d930 02b3 f75a b6bf 8611 c1fd 5be1 83bf
000001b0: db65 1c30 c347 a7bf 66cd 356c 7632 ab3f
000001c0: 86f3 b303 dc05 a3bf c2e1 1c45 7e25 80bf
000001d0: 4eca faf9 c928 c03f 947d 2770 bee6 ac3f
000001e0: dac8 aeed 586b 95bf 8fdc e8bd 3fa8 babf
000001f0: 19a1 45d0 76a6 8abf 3aa3 aec3 9027 8d3f
00000200: 77d3 f15b 907b a8bf 9c35 4ba4 baa7 733f
00000210: 1d8f 9e77 c814 6fbf f479 a435 376c 9b3f
00000220: 1f9d 2834 959f bdbf 3576 9598 2c16 8c3f
00000230: 0a3d 18e2 4cc7 85bf fe0a 684b c4f1 3abf
00000240: 3718 c7da 76a8 93bf 7c18 9574 82a8 bf3f
00000250: 40c1 9b34 5660 a43f 5495 4083 6927 bb3f
00000260: 1bd2 61c2 b89e 66bf 7ee1 53d6 cd37 87bf
00000270: 92b5 f566 b473 b93f 6b8f 81d5 df15 c23f
00000280: 9934 bd69 f271 a9bf f537 b7bb 7521 b5bf
00000290: 7e4d aa2a e9d9 903f 96e1 4432 ca71 8cbf
000002a0: cb3b 131b b868 743f f9b7 ab96 ebca a2bf
000002b0: 1021 4205 f5d1 89bf 8248 45d1 28bc a03f
000002c0: dab0 b344 10db a33f c82b c59d 9d0f aabf
000002d0: ca33 6cc4 ac94 7d3f 54e3 9e5c 0885 8e3f
000002e0: 3907 405e bf48 b4bf cd3a c435 036b 76bf
000002f0: 2afc 9c0b da11 96bf 2ec1 545e b1b9 bdbf
00000300: e915 ac11 55b7 b3bf 6f14 1ba1 1c37 bf3f
00000310: a6d3 8da6 79b0 953f 6b71 512b be30 a63f
00000320: 96f2 410c 0fcd adbf 44f6 00e7 1d40 a6bf
00000330: 99a2 9062 9980 a1bf 7b09 3071 2151 b13f
00000340: 86af 45a5 54b2 9dbf 6f60 b1cb d35f c03f
00000350: 9cae 7218 c7e2 81bf 5314 94e3 12b3 a43f
00000360: 172d fe30 14be 8e3f 20a3 cf22 ac5a b63f
00000370: 6caa 5562 9fd4 b5bf c2e7 4221 17b1 adbf
00000380: b478 40e4 e619 a8bf f75b c68a 62b9 a5bf
00000390: 9036 9b5c c29e b6bf 6dc7 6714 16f1 903f
000003a0: f0d1 ae87 220e b63f a8ca 81cf f469 afbf
000003b0: 49ef 1342 ad63 b43f b0ec c7be f190 a23f
000003c0: 257d b609 37dd b13f 5adf 2008 da78 a43f
000003d0: 3aa0 fbbc 85cc ac3f 96b6 7f21 e15a babf
000003e0: b329 0fb6 19bf 98bf d18c 62cf e09b b3bf
000003f0: 1483 1356 efe2 af3f 86b5 1665 c75d aebf
00000400: b005 eded ed36 94bf 4e6f bc16 9216 813f
00000410: 74d6 37ca 57ba a83f dd37 287c 2c82 b2bf
00000420: 5fef 62cf c2cd b1bf 1612 50f1 64c7 b33f
00000430: 5d43 dccd 6f16 ad3f c0a7 1188 63d7 9bbf
00000440: ce53 c469 8119 a1bf 264a ca54 9269 9f3f
00000450: 364a 0e43 9bb8 a0bf 1f1a e8a0 635f a23f
00000460: f16a 1f01 7c2b 88bf 9eec a60d bf27 7abf
00000470: fea5 1f7e eae6 86bf fa79 1e41 9736 a53f
00000480: 6a3e 429c 18d2 a03f d516 c5bb 9ada bbbf
00000490: 7854 490c 5597 b7bf 0337 4ad5 98ca 9e3f
000004a0: 313f 9a7d 8f0b a9bf b36a 5746 bdfe 913f
000004b0: c751 2a5d 2060 bc3f 6877 649b f1d4 76bf
000004c0: 343b 3f20 feae a9bf 84ad 9456 6051 aebf
000004d0: 824f ea75 5922 b5bf 0a3e 9f14 cf15 89bf
000004e0: 8e8d ecea 3857 b13f eee4 3a93 1e56 b6bf
000004f0: 32ba 6e1a f6f8 b9bf 8c29 6016 995c 9dbf
00000500: 9186 ab16 a8ce a83f 871e 73d0 0f71 abbf
00000510: f6c0 ce29 ae78 90bf e029 36aa 1a3a 9abf
00000520: c0a8 2560 4126 aebf 4572 11c1 2216 7bbf
00000530: 60ec fd3a f465 b03f 6a16 42d4 ac98 97bf
00000540: 65c1 5947 60d1 a83f eb82 697c 3040 a3bf
00000550: f529 5592 8b0f a23f acda 0608 f987 963f
00000560: f47d 82c1 c5b5 a3bf d436 858a 359f 9c3f
00000570: 16e0 e19b 9d46 b23f e729 564f 2804 b43f
00000580: 7caf 223c a7e1 abbf c669 2816 2912 b6bf
00000590: 8e0c 7fbc 67cf 933f 50bc 36bc 2ba8 b33f
000005a0: 0b2f acea b006 a23f 6c74 afa6 78e5 7abf
000005b0: a9ae 55d6 066a bcbf 5d3c f0ac 46ce b0bf
000005c0: ad56 2716 3a3c b3bf 8d06 0c0c a482 ad3f
000005d0: 1069 f39c a637 a3bf 9db5 f671 6902 b4bf
000005e0: 6cb6 7248 9f9c aabf 058e eac9 98ea 8cbf
000005f0: fb2d d257 83a7 bdbf daf0 9104 48e2 893f
00000600: 0792 9c13 8397 b1bf db4e db00 3e47 6a3f
00000610: 9c9d c988 046e bb3f a73a 6e07 46c6 acbf
00000620: 9c34 3412 94e6 813f 85d7 b346 dfba a3bf
00000630: c4e5 e862 ebb3 95bf bfe0 2548 352b a23f
00000640: 6405 299e 9be5 9abf 1917 e62a 47dd bd3f
00000650: 6203 3e28 49ea 843f 68db 57cf 51e7 83bf
00000660: c265 d421 c937 a63f bbe1 23b7 2b23 a3bf
00000670: 2998 ccd8 67c2 c2bf f1dd 982d d929 b73f
00000680: 1480 a977 eb86 adbf d721 2f14 fd13 973f
00000690: 9d22 aa92 5cc1 a4bf c982 393e 4801 973f
000006a0: bd9b 665a 9e0d b8bf 71b3 cf0e b285 b7bf
000006b0: 4fc4 7a0d 091a a23f b721 83bc 7bed bcbf
000006c0: 291d 42b5 9812 a6bf 4cef 0e5e 8e60 b8bf
000006d0: c7b5 948c 45c0 c0bf 76fc cb07 bd81 9cbf
000006e0: dabc 6894 48db c0bf 2152 f7cb efcd a93f
000006f0: b427 f8e0 86c0 b1bf e63f c4ed deea 6dbf
00000700: 6f73 6261 2add 81bf 486e 1585 bae4 81bf
00000710: 97e2 5091 1497 22bf 55ef 96c8 0ba7 92bf
00000720: 4a60 f80b b436 ac3f d470 cfd4 91f3 a6bf
00000730: 911c 1da5 207f a1bf 01b5 b3c6 3082 913f
00000740: b77c 64a6 7631 b9bf b24f 3b11 72ba 82bf
00000750: 581e f289 445d b7bf 7266 7ee6 f1a1 943f
00000760: dc28 2304 4073 a4bf 0092 65d6 eb3b 7f3f
00000770: 858a 222c e73a 9f3f 18a7 1c4b 1a68 573f
00000780: ba14 48a0 0e26 b0bf e5db a176 3e46 b23f
00000790: 0928 5362 399d b93f b45c e669 8865 a9bf
000007a0: 730f 2abe 23fa a73f b1a4 bf3d 8f2f a43f
000007b0: 593c 49e2 c21f b33f e166 73a1 f869 a63f
000007c0: 0b93 d03a 383f a23f 501a dc6c de0a b13f
000007d0: 0c21 60a7 2997 71bf d250 aa39 a85b 723f
000007e0: dacc 5d85 0e69 af3f b58b 1c68 e3ab 9cbf
000007f0: d548 9a36 b857 b53f 9556 4b96 494a 96bf
0.08409678793097673 0.06331897528238925 -0.025701555097421617 -0.02968318641895171 0.04103512768017791 0.005407826904591779 0.011306523051965852 -0.11290296503684415
-0.02901694438027671 -0.12244137959392881 0.09184361523153935 0.05478653170098018 -0.0965864529464865 -0.1450733744727875 -0.005848629084221773 -0.010536111317749182
0.0125306734083501 -0.005950993963180166 0.1687192181787135 0.02929625436026241 0.07800322005986472 -0.00967947178974203 -0.09840372016961824 -0.03782310890173299
0.026237530850936754 0.009263769843162609 0.08390118826303472 0.054630609506419875 -0.12629728082865516 -0.03532174061010522 -0.01697769638401962 0.09014266787183532
0.026844044854521687 -0.042594999563090034 0.020068582047567642 -0.04818842091279752 0.06554178989351152 0.01525227920503973 -0.12811645292463636 0.06319159305134124
-0.04964875671850831 0.06556958171843102 -0.08846618462633377 0.09546294867481304 0.07722714493003896 0.05700858198979199 -0.03221348142512603 -0.09953599506661227
0.01700674192594201 -0.0753850556447034 0.031779072035623454 -0.16937682167958443 -0.08732555504156227 -0.00970718258043558 -0.045469379065433656 0.053119373997925476
-0.03715407891465987 -0.007884012684017064 0.12624478059804506 0.056447936239915425 -0.02091731024456398 -0.10412977587189885 -0.01301281760306998 0.01423562142538658
-0.04781771776553161 0.004798630780624615 -0.0037940898300393836 0.02677999749095679 -0.1157162906971405 0.013714168936242202 -0.010634041452276328 -0.0004111389384037627
-0.01919732771218482 0.12366500231027716 0.0397974909991512 0.10607013182069142 -0.0027612312870195616 -0.01133690653158292 0.09942176355044399 0.1412925522337177
-0.049697471053698546 -0.08254180748846791 0.0164562637606429 -0.0138889118758108 0.00498268047631618 -0.03670440878146048 -0.012607492659541225 0.03268554262707914
0.038780697237457765 -0.050900388249452144 0.007221865532085434 0.014902177168424714 -0.07923503924396592 -0.005473148860132238 -0.021552473982634414 -0.11611469796185211
-0.07701617890787528 0.12193468983885379 0.021181011953973837 0.04334062842164851 -0.058205099340715424 -0.04345792240972604 -0.034184258729799306 0.06764420522089225
-0.029000589930930264 0.12792441793385786 -0.008733325418084185 0.040428724556513494 0.015010984177726656 0.08732105111961319 -0.08527561331508487 -0.0579917171575768
-0.04707261596944204 -0.042429999771392994 -0.08835997353454617 0.016544671054311722 0.08615318119593218 -0.061355257349437864 0.07964594710568663 0.036262087382021746
0.06978172289972358 0.03998452519630176 0.05624788219375927 -0.1029492098602652 -0.02416649030400615 -0.07659726203069118 0.06227825093970388 -0.0593092261218358
-0.01974078907665494 0.00834383136639585 0.04829668372614729 -0.07229879409007318 -0.06954591334482306 0.07726126567292399 0.05681180370277759 -0.027188830547323795
-0.0333977166757574 0.030676161217863783 -0.03265843576004494 0.03588401164238441 -0.01180168989588057 -0.006385561277450295 -0.0111826247920872 0.041432120036223055
0.032852906298214204 -0.10880438884950235 -0.09215289640390434 0.030069721239264 -0.04891632469400376 0.01757331601934693 0.11084177279037198 -0.00557417276129777
-0.05016321319236852 -0.05921460205930898 -0.08255538109579955 -0.012248628441652993 0.06773715720605919 -0.0872515782783869 -0.1014550985844174 -0.028673545828533473
0.04845166470273655 -0.05359696788360418 -0.016085358907447188 -0.025612274779215016 -0.05888561533613901 -0.006612907179342435 0.06405569496375696 -0.023043346839151026
0.04847241278628437 -0.037599101244955545 0.03527485047614568 0.022003069987216392 -0.03849618899516463 0.02795108468972425 0.07139000945778692 0.07818843781402728
-0.05445597275806244 -0.08621460715259052 0.0193458756255152 0.07678483338416808 0.03520729889541315 -0.006566497128884224 -0.11099283917217896 -0.06564752313737317
-0.07513773957119936 0.05763733527238655 -0.03753395715621555 -0.07816180260007007 -0.05197618255020306 -0.014119332944864569 -0.11583729642932632 0.012638628615825476
-0.06871813992308527 0.0032077990534647833 0.10714748706379001 -0.05620020714478829 0.008740574651279247 -0.0385350965315601 -0.021194150840732964 0.03548590188705835
-0.026266509559950704 0.11665768430074443 0.010212489643665005 -0.009718550815689134 0.043394360904311494 -0.03737770662877745 -0.1465577896680668 0.09048230517588941
-0.05766998134345172 0.022537187916698755 -0.04053773203219644 0.02246582870282302 -0.0939578028397667 -0.09188378202061444 0.035354884047941064 -0.11299870827054447
-0.043110630155803804 -0.09522332950922169 -0.13086766590406126 -0.027838662720565975 -0.13169200178660995 0.050399297378735726 -0.06934397690215982 -0.0036520341947223643
-0.00872262105650076 -0.008737046419518127 -0.00014183164663152524 -0.01821535503198331 0.05510485311623421 -0.04482703898222132 -0.034173031001551675 0.017098199966246067
-0.09841100275342539 -0.009144679213399207 -0.09126690261666093 0.020149020856115425 -0.03994178820137659 0.00762550472277157 0.030498134678632844 0.0014286286136190925
-0.0630807057678621 0.0713843383435769 0.10005530024059807 -0.04960275929186633 0.04683028885213405 0.03942535046355412 0.0747033884483569 0.04377724619707891
0.03563857763245978 0.06657209546765697 -0.00429455061931373 0.004481942300703605 0.061348394184187874 -0.02799945185610016 0.08336974461625186 -0.021767759130702464

policy_graph_hap0.weight_u f8 [1]
00000000: 0000 0000 0000 f0bf
-1.0

policy_graph_hap0.weight_v f8 [264]
00000000: 9318 0c02 f8d9 b4bf e085 4504 5566 afbf
00000010: b296 c55f bc7d 993f 16a8 f5f6 5e70 9d3f
00000020: e36e 2fe4 7359 a4bf ee8c a1f1 d874 75bf
00000030: 9c62 98fc b26d 86bf a6ea 7a82 71fe bb3f
00000040: 5c48 8517 62c7 9c3f efd2 97c3 e45b be3f
00000050: e015 c186 b1c5 b6bf 6c23 5af8 092b abbf
00000060: 47ee b872 d1f2 b73f ccd3 4e58 3efc c13f
00000070: 7909 26de 7134 773f 5829 c5b2 7de6 843f
00000080: d0e1 b234 42db 88bf ebf1 6a49 339b 773f
00000090: 7348 7d62 b0ea c4bf 4910 55c8 1e0e 9dbf
000000a0: a46e 94ef 3d57 b3bf 23ce f28c 8533 833f
000000b0: 5c37 4cb9 1a66 b83f 26d7 85f9 80c1 a23f
000000c0: 438a dee8 8005 9abf c07b 125e ca5f 82bf
000000d0: 2d87 d999 9bcd b4bf 6372 c09c 6217 abbf
000000e0: 41fc 8c85 b250 bf3f 0a7e c5ab f883 a13f
000000f0: 6c6f 4084 93d6 903f e6f4 4e8b b759 b6bf
00000100: f136 2971 8f9f 9abf 1f73 ec80 761f a53f
00000110: 90b6 8bbf 7ce7 93bf 153e 276e 8be5 a73f
00000120: e8c6 8fc0 2f40 b0bf 7bdd 3336 b540 8ebf
00000130: 7b0e 5935 29c4 bf3f a685 3a7c 0356 afbf
00000140: c75e 3ad2 ce9e a83f dee6 8ba4 f641 b0bf
00000150: 8cf3 78fa 56ef b53f 91fa 5927 76ab b7bf
00000160: 7ee2 6e69 e825 b3bf 16b2 0384 1845 acbf
00000170: 8ff2 14ac d5f2 9f3f d6b9 79fd f7ad b83f
00000180: 5cda c09a eedd 90bf 2be6 edf4 00b1 b23f
00000190: d18e e1b2 c984 9fbf 118b 53e4 91ff c43f
000001a0: 6eb4 bff6 eca6 b53f 1168 f802 9841 833f
000001b0: fb49 5080 568c a63f a8ec 486b 5b57 aabf
000001c0: 2fe4 f45c 986c a23f a5ab 3af2 8e46 7f3f
000001d0: 7cca e819 484d bfbf 1ce9 b1a5 effd abbf
000001e0: f57d 5db3 c9be 943f bb56 afa8 97d1 b93f
000001f0: 79c0 58c7 1dd0 893f ec12 b986 ef3c 8cbf
00000200: b615 683c 50b6 a73f 93ae 9e6b b809 73bf
00000210: 1f3f d1ce 6619 6e3f dc5f c335 408f 9abf
00000220: 1958 9ce4 10b1 bc3f f035 09a6 aa33 8bbf
00000230: 1436 14f3 3a18 853f 61ec f45b dd1e 3a3f
00000240: 47f8 d7de f909 933f d9b8 9fdc 91a9 bebf
00000250: 0ba1 2f6a 2ebc a3bf b345 3098 b64c babf
00000260: fd23 941b eae9 653f 9256 be0d 867c 863f
00000270: e41d 662a b9a6 b8bf d351 aa62 3c84 c1bf
00000280: 76fc 245c f0a4 a83f 1d7c 8dc0 5677 b43f
00000290: e8eb 9b68 3d52 90bf 63ff 253a ea8c 8b3f
000002a0: 06f0 b557 0dc5 73bf fda2 a9f3 8733 a23f
000002b0: d394 f440 2102 893f 15a6 a21d 4f35 a0bf
000002c0: e403 7703 1c3b a3bf 44ef 0704 aa3d a93f
000002d0: 710b ee34 9ca6 7cbf 7f5f 134d 9e8f 8dbf
000002e0: f991 d305 64a5 b33f 0059 b834 0fb6 753f
000002f0: 60f7 a7ac 3a60 953f 1c53 e5d4 5dca bc3f
00000300: b388 a9de 9818 b33f d1c0 1709 b33b bebf
00000310: 3db7 a185 fc01 95bf 6654 8a1b f67d a5bf
00000320: 5c75 9c45 0bdd ac3f 55a2 2085 d98c a53f
00000330: b528 8dc9 b9f3 a03f c9f6 f039 b8c5 b0bf
00000340: 1654 2f16 59c3 9c3f e805 6386 f9b7 bfbf
00000350: 7b25 3d29 7452 813f d138 5b97 530c a4bf
00000360: 7d20 5cd4 54c6 8dbf a3a7 e110 9ea6 b5bf
00000370: 14f6 e5bf dd24 b53f 24e4 4bd0 f9c1 ac3f
00000380: 0c33 1d2d e257 a73f cea4 4de6 620a a53f
00000390: 4011 b5f6 98e8 b53f 0911 b90c 8168 90bf
000003a0: e7d8 a60d 7d5c b5bf cc8b a0e9 f76c ae3f
000003b0: 8e0f 4836 75bf b3bf 942f 6c64 5afb a1bf
000003c0: 3c01 a7a7 5f4d b1bf 9378 114f f2d3 a3bf
000003d0: f187 47a7 88e4 abbf 99d2 2588 a786 b93f
000003e0: 39e4 bf8f f9f7 973f 896f 9492 edfd b23f
000003f0: 8f01 9483 3fe2 aebf ad62 65b4 3769 ad3f
00000400: 81b9 dbae 2f94 933f 7b48 26c1 9d8c 80bf
00000410: 777b 71f6 28f3 a7bf a613 6efe 1bed b13f
00000420: e387 c91b 593e b13f 2f44 90e6 1f28 b3bf
00000430: 548b a233 472c acbf 7657 bc9c 59f7 9a3f
00000440: 375a f665 cc8f a03f 7699 a6cd c56c 9ebf
00000450: ce65 9228 0732 a03f 51d3 a110 5bcb a1bf
00000460: ac8b 8c40 2469 873f a132 3f25 9255 793f
00000470: 2fc1 3e11 d32e 863f 6f1d 98c7 cb8b a4bf
00000480: f58a f10c 904a a0bf 92eb 9c77 46fa ba3f
00000490: 21cc d0d5 51d9 b63f 3a4c 96e8 75d2 9dbf
000004a0: 975b f9e8 f441 a83f 9a2b 261d c86d 91bf
000004b0: df84 a879 a57b bbbf 5f94 f91a 511c 763f
000004c0: bb93 3217 40e0 a83f 5eae 5f95 505d ad3f
000004d0: 105c fe7b 2278 b43f 08be 7cb8 804b 883f
000004e0: 83ef 972a 8bcb b0bf e6e0 a94e 4ba2 b53f
000004f0: 4873 672d c627 b93f a6bf ffa1 f46f 9c3f
00000500: 8644 6563 ce06 a8bf 3018 61a5 fc93 aa3f
00000510: 0737 0499 d9e7 8f3f d45c a8dd fb66 993f
00000520: c1d7 92a1 6133 ad3f 7192 f01d 5b3b 7a3f
00000530: e6d6 63ef b8c3 afbf ca36 e2ce afda 963f
00000540: ae52 671c 9c09 a8bf 274d 0201 22a5 a23f
00000550: c3ad efcc 2b7e a1bf 1460 c719 61d2 95bf
00000560: 9e93 0640 f716 a33f e01a e8c2 8cb8 9bbf
00000570: 56bc ba2a 7bb3 b1bf 47a2 729d ff62 b3bf
00000580: d7bd 377a 2a01 ab3f 3468 8401 6260 b53f
00000590: cbe6 72ce 0430 93bf 7914 6315 d509 b3bf
000005a0: c3b1 61a4 7375 a1bf a585 e742 750d 7a3f
000005b0: 2f32 acd5 3485 bb3f 4622 b7f3 f946 b03f
000005c0: 260b 13ab 52a1 b23f ce5b 01d9 1595 acbf
000005d0: e85e 2535 e09c a23f f6ca 423b 4161 b33f
000005e0: a41e 8780 47c6 a93f 769e 8260 b801 8c3f
000005f0: 6b28 96f0 c1b8 bc3f 5dba 7ab8 9011 89bf
00000600: 992f 8d20 e309 b13f 1eb1 9761 4f74 69bf
00000610: 3864 7af0 1691 babf 8ad0 6584 84de ab3f
00000620: 4f9e 8057 ce56 81bf 9c90 986a 131c a33f
00000630: e3f6 6dbf 0605 953f c32a 6ad6 ce98 a1bf
00000640: a020 2c40 180d 9a3f 9348 6ef5 d1ec bcbf
00000650: 50b4 6e89 3e42 84bf 5f3f 9ff8 d546 833f
00000660: abf2 75de ca84 a5bf 39fd 03e7 2289 a23f
00000670: 4432 bcbc 5a2b c23f d2b3 e186 486f b6bf
00000680: 3f9f ea0b 1599 ac3f 124f 40e1 355a 96bf
00000690: 6163 9dc7 1f1a a43f 7fd1 6d40 de47 96bf
000006a0: 07b5 ebdd f44b b73f 99f7 36fc 48c8 b63f
000006b0: 767b 6eb0 2e88 a1bf 0c29 96d9 8804 bc3f
000006c0: 398b 84c8 bf60 a53f 294d d17a 479c b73f
000006d0: 098f ac78 6539 c03f 9994 1dcd 0d9c 9b3f
000006e0: c00a 9950 8e53 c03f dbca f2f4 12fe a8bf
000006f0: 8021 4a37 9031 b13f 924e a170 e4fa 6c3f
00000700: cff0 84f2 0a4d 813f 8af0 c349 7854 813f
00000710: be82 e0db dafa 213f b43f 1fc5 d310 923f
00000720: 0ab7 ebca 6a53 abbf b86f 45ad c93a a63f
00000730: 71cc 1ee0 26f2 a03f 866b 5598 41f5 90bf
00000740: e66c b374 a066 b83f 70ea 30bc a223 823f
00000750: 9973 c779 29a1 b63f 653c e7ed a5fb 93bf
00000760: 0403 1d05 9fce a33f b475 5b26 cb3f 7ebf
00000770: 1d9e 7591 463f 9ebf 0f76 02c2 37ac 56bf
00000780: 24d4 4962 1c48 af3f 027d 66a0 09b3 b1bf
00000790: 2904 1cef f9ce b8bf b81c 0ec8 eb98 a83f
000007a0: a755 aab8 f938 a7bf 2013 43c1 ec8c a3bf
000007b0: aa74 df80 c885 b2bf dd31 7b69 8bb5 a5bf
000007c0: a838 b884 37ac a1bf edae ed17 a581 b0bf
000007d0: 6a06 a7e5 350a 713f 5931 add4 27c7 71bf
000007e0: dacf 362a 2b6c aebf 8640 3486 cbc4 9b3f
000007f0: 2794 069a cfab b4bf d770 1539 f196 953f
-0.08145093965512933 -0.06132760693686712 0.024893706651161814 0.028748973677842647 -0.03974496994461931 -0.005238387524602246 -0.01095142205581228 0.10935124812651029
0.02810433643873754 0.11858968520375489 -0.08895406284235419 -0.053062736097735236 0.09354886103476999 0.1405103617850315 0.005665249629944185 0.010205251711017979
-0.012136952622641056 0.005763244952217121 -0.16341213997890555 -0.028374176957427975 -0.07554995631329092 0.00937561355963285 0.09530798934812651 0.03663256689007559
-0.025411619389738026 -0.008971768375259148 -0.08126232629868176 -0.05291278995011763 0.12232509384647107 0.03420998665637505 0.016443543383601364 -0.0873064723118265
-0.025999299318121897 0.04125566791319656 -0.019437741461777736 0.04667316169399897 -0.06347940875255242 -0.014771857945091274 0.12408692886770638 -0.06120310679876732
0.048086608088110654 -0.06350652234314277 0.08568328490305371 -0.09246004544000132 -0.07479717802096705 -0.05521465884689662 0.031199778202096125 0.09640455187193395
-0.01647160357989673 0.07301336269110752 -0.03077998308471203 0.16404937409159762 0.08457833313123483 0.009402453985831756 0.04403944317177274 -0.05144773182515766
0.03598476538395123 0.007635649093269335 -0.12227297432472456 -0.05467175386088938 0.02025904805429764 0.10085437649044142 0.012603981634214488 -0.013788100527685164
0.046312816022730116 -0.004647941963337526 0.0036742217985547133 -0.025937083512729817 0.11207681256595982 -0.013282139961257905 0.010300121825390675 0.00039856819417466964
0.01859274313573447 -0.1197749293930629 -0.03854508444038814 -0.10273305144826032 0.0026750156799875122 0.010979697508257478 -0.09629399571542013 -0.1368480188144888
0.04813338398752702 0.07994596673005146 -0.015938720235663256 0.013452367686795424 -0.004826595420464491 0.03554940080068112 0.012211093706876152 -0.0316567157436333
-0.03756034414573842 0.0492985849304817 -0.006994829352040864 -0.014434086539423905 0.07674241201636524 0.005300578497118957 0.020874897754758037 0.11246286819125512
0.07459407268609901 -0.11809843990318149 -0.020515390068275286 -0.04197663389383237 0.05637393212075878 0.04209022283641121 0.03310947976440685 -0.06551696219045335
0.028088943461472914 -0.12390098124435378 0.008458049305448459 -0.03915654394732971 -0.01453844330855269 -0.08457363044877168 0.08259378371254683 0.05616741817170404
0.0455923729010462 0.04109486638373881 0.08558040640952402 -0.016023651505990198 -0.083442512352892 0.05942511298078265 -0.07714016509276986 -0.035120796927088055
-0.06758687823367365 -0.038726398612866884 -0.054477949542857014 0.09971091340941952 0.023406886481073228 0.07418713406189971 -0.06031988602808546 0.05744337155437527
0.019119973227981205 -0.008080704171139033 -0.046777038653764196 0.07002425157231915 0.06735760620497859 -0.07483100298874555 -0.05502531533536251 0.026334190551174662
0.032347094961711446 -0.029711809803893506 0.03163168306600604 -0.034754606037415876 0.011431010455970135 0.006185122376291347 0.010831498111514818 -0.04012905894711138
-0.03181886823656114 0.10538139744032396 0.08925353498561651 -0.029123155899992016 0.0473782095329433 -0.017020346430892987 -0.10735544414685048 0.005398098771910303
0.048585894424185004 0.057352560266590955 0.07995811011493026 0.011862760191063706 -0.06560582914238293 0.08450766249177696 0.09826315506456951 0.027770826709399586
-0.04692692721676743 0.05191030043401701 0.015578937513534464 0.024806914714727693 0.05703263375600854 0.0064042624717656075 -0.06204011842957673 0.022318598749328435
-0.04694831701968859 0.0364161134940793 -0.0341657340685191 -0.021310345838941272 0.03728459030688856 -0.02707118930450292 -0.06914491456221702 -0.0757293471712127
0.052743270320089124 0.08350193535844214 -0.018737864590298508 -0.07436877987045588 -0.034099210563769876 0.006360490848665111 0.1075013181363793 0.06358301353532977
0.07277409245129415 -0.05582493089666905 0.03635311745409614 0.07570274063872859 0.05034087604468354 0.01367515606428003 0.11219417689986393 -0.01224053442942113
0.06655711693491496 -0.0031072187818975824 -0.10377639170691644 0.05443204990561508 -0.00846635059868031 0.037323576700402955 0.020526986535961533 -0.034368957208319915
0.025440577427645494 -0.112988588733318 -0.009891975945573034 0.009412452363818323 -0.042028751045085265 0.03620251722349583 0.14194807258208375 -0.08763554852494274
0.05585542459931369 -0.021828500626795373 0.03926181136802743 -0.021758530313904508 0.09100275438295934 0.08899360807023839 -0.034242114102417995 0.10944419204875916
0.041753762461914375 0.0922283816192261 0.1267515982846066 0.026962485927829325 0.12754992423477596 -0.04881343116848821 0.06716252660601718 0.003537603542136677
0.008447728658773105 0.008461894751683258 0.00013717576615681308 0.017642315775276265 -0.053370797415352625 0.04341726532103912 0.0330974720558509 -0.016560578272542446
0.09531596039908016 0.008857032173286344 0.0883966371834063 -0.019514649053061457 0.03868576943796678 -0.007385057024035847 -0.02953825247587193 -0.0013838333616499365
0.06109703731355179 -0.06913814703010604 -0.09690820777542854 0.04804169480399295 -0.04535656336990295 -0.038184546081117654 -0.07235386987982176 -0.04240070021259943
-0.03451703543770296 -0.06447822412672695 0.0041601281504327434 -0.004340320195137381 -0.05941901102360676 0.027117900911492153 -0.08074662695305844 0.02108361159240321

policy_graph_hap1.bias f8 [1]
00000000: 7df0 bb4d ffa7 a9bf
-0.05010984252837234

policy_graph_hap1.weight_orig f8 [1, 264]
00000000: b6f6 4e1a 1e53 acbf 00f3 445a ae0d 9fbf
00000010: 8fde 866c ef50 a1bf 14a0 22a2 f7b3 a73f
00000020: 94af 8f83 2581 aa3f dacc d906 1081 583f
00000030: bc6f 011a 82f9 b43f 2280 1ba4 e8fc 843f
00000040: 9f95 a113 dd70 a0bf 6948 0a57 ab10 94bf
00000050: 736e 4989 7905 a4bf 005f 77b0 8691 90bf
00000060: 5404 27c0 c5a1 b23f 3a4a c7d4 b53c b3bf
00000070: 5309 5e12 0664 b8bf 7ec2 1d8e a341 8a3f
00000080: a5df cf9a 79db 983f 03c0 8c9f 98ab 82bf
00000090: 6393 4bd4 1799 b6bf 1fbe 56af d0a8 b1bf
000000a0: 50c3 af55 61a0 943f 79cc 786f 72a9 a2bf
000000b0: 3696 caef 3fc0 bd3f c078 3079 b205 b73f
000000c0: d12c 0d68 d19e b9bf eaae 5bbc 5cde aabf
000000d0: cd8c a4da 6d51 a63f cd15 e122 406d 963f
000000e0: 7e08 fb1a fc86 aa3f e7d5 7947 af58 9bbf
000000f0: 7817 ad3c 0adf b23f 0b04 da1c df61 ba3f
00000100: 49eb a069 b596 88bf 2eb9 dc0d bb7a afbf
00000110: 7c6f ec35 524d ab3f 1d8b 75f9 f95f 7cbf
00000120: 7954 1b23 147d b8bf 0bd6 c395 8202 b3bf
00000130: 5e0a e926 eaac 7cbf 24f9 6cf8 8fe8 bdbf
00000140: 7852 e6c9 52f0 903f adae ce2c a23d 9d3f
00000150: 54f8 424a 14ab be3f f76c 00f9 2020 b2bf
00000160: 3556 2ce0 3c0d afbf 0bd4 5f94 eb1c 55bf
00000170: b949 8519 3d82 c23f bbc4 ab9e 12fb bbbf
00000180: 12ff 3cfb d855 7ebf 7428 da97 0341 c03f
00000190: 8655 787b 77c8 7ebf 27eb caa2 f18b a13f
000001a0: 92d7 bb9b 6622 83bf 067d 0a01 3797 8cbf
000001b0: 3c23 30b9 c6d5 94bf a5af 478b b776 883f
000001c0: 80f3 e8a1 7e84 a83f 6c04 a6e8 c8ce b63f
000001d0: a2d6 7988 fea7 ac3f 8ba0 82d4 b3d1 c0bf
000001e0: f2b7 0cec 8ba8 88bf 074f a52c 0a9f b43f
000001f0: 2376 d9e7 ee01 bcbf a2d9 8333 f410 b7bf
00000200: 4c4b 23c9 8eb3 a83f 9e60 d39b 0ebd ab3f
00000210: 237a bc5f 6eaf af3f 2f34 60a0 17f7 a03f
00000220: 942e 536a b71d a2bf 0c05 e8c8 3657 c0bf
00000230: dd51 9028 18fa b2bf c4f9 17fc 48c9 b0bf
00000240: 752e c5f5 27b9 933f cadc a3d9 4f42 98bf
00000250: ddec 4b40 cfe4 c0bf 7ec5 2612 a9de b53f
00000260: fd8b 17c1 4efa acbf 70f2 89bb 6e1c a43f
00000270: ecba b016 592b 8b3f a62e 60fe 6329 b2bf
00000280: 1f11 aff3 46bc b23f 262f c063 e803 a1bf
00000290: bad4 bee5 ef5a 453f 2d9b da07 4e3f b1bf
000002a0: 5871 d95d 677d a1bf 59cd 807d 5666 89bf
000002b0: b7c7 372f 51b3 143f 39ff fa21 5338 923f
000002c0: 840d 37de 23fd a6bf e742 8df4 d939 86bf
000002d0: b378 05f5 f0b4 953f bf9f e12c ae43 a33f
000002e0: 2b5a 1fa5 2da4 a13f 03f9 f3be d50d ad3f
000002f0: f3ce a14e 8289 8cbf c8a8 4654 7d0a 92bf
00000300: 3783 992f 721b ab3f 9342 1c30 be09 c0bf
00000310: 30d0 6f53 995f b33f ede8 a491 4da4 a2bf
00000320: c6bf e1f9 1463 893f eba2 023c 4745 8e3f
00000330: 71e3 0789 6adb a9bf 7434 da50 78b6 a13f
00000340: 7afc a98c 4917 983f bfa9 6eef adbc a13f
00000350: 81c4 71a4 9e70 b63f 1afa c1d8 3c21 b1bf
00000360: 276e 2213 5e26 ad3f 6242 0fb8 8da4 c0bf
00000370: 018a 8731 e379 b7bf bf49 bc4a 97e3 a2bf
00000380: 18f5 5ee9 156b 9ebf 8c65 f5df bdce b1bf
00000390: 82d8 93d5 87a5 a0bf 9f6e ae02 8846 a23f
000003a0: 26ae 4cf9 7833 bbbf 9438 cbde a399 60bf
000003b0: 99ee 82be 7e8c 9e3f d8ba a5eb c86f b1bf
000003c0: 75f8 4f18 3062 acbf 8ab8 c692 1254 b0bf
000003d0: b3fc 00ef e2c8 b7bf 67c1 67ba ec6c b23f
000003e0: b86a 585e bd9a b5bf 1a39 3ad9 3479 6dbf
000003f0: a031 f781 9b36 9a3f c4a1 79eb 2346 babf
00000400: cb7c 0157 0524 a33f faac ba4d 7259 bdbf
00000410: 5ca0 ff88 08e4 8abf c42a 6c8e 121f a33f
00000420: 383e 5b1e 601f b43f bf88 dfad 5cfc 4abf
00000430: 2cac 5ec6 c3de b0bf 3097 5750 0410 b2bf
00000440: 6bdc 5569 f325 9e3f 7009 1171 0e13 9a3f
00000450: 2afa cc38 f178 c5bf 77e6 3247 bcfb bfbf
00000460: ad46 6f27 57ec bfbf 6684 901a 49ef b0bf
00000470: 1b30 35e5 aa2c a6bf dab2 1648 7f9d 9e3f
00000480: 1900 4d7d 7bf5 a73f 4bb8 e159 e263 93bf
00000490: 0560 1a42 642b 80bf 0fd0 80aa f623 9dbf
000004a0: fb52 dba8 a9fc acbf 0879 b986 150e b73f
000004b0: bb81 ab18 3f50 ad3f 2a16 e0c7 74b4 acbf
000004c0: 1b50 e8a8 2459 a5bf 0f17 c9b4 7ef9 bebf
000004d0: 2dbc 4148 2d31 b13f 471a 28a1 17de aabf
000004e0: d3e9 419d 2293 b2bf 9603 ced4 c9fa a23f
000004f0: 7cf3 07a1 eaa3 923f f76a cc71 3faf aa3f
00000500: cdb7 3a8a 21f1 b8bf 2b5a e5c5 35fd b83f
00000510: 6359 e356 7d4f 9a3f 24d5 778f 00f7 b1bf
00000520: 4c9b 4589 1db4 ba3f 6eeb fd45 f8b9 9e3f
00000530: 20cd b164 ade2 c8bf 68a7 1947 c88e 7abf
00000540: a878 aa37 660f 883f a985 2bf4 6d40 963f
00000550: 98ec e0bf 0872 b63f 037e d21c b958 b5bf
00000560: 9a03 b4c5 777c b83f d906 f94c 4f1c a2bf
00000570: 0f42 ba27 9954 8dbf 6ccd beb1 d9aa bc3f
00000580: e186 b51a c068 9abf f528 b1a7 2661 b53f
00000590: 4874 a2e5 6602 823f 9257 c78a 3bd6 92bf
000005a0: 8399 8411 51a3 b7bf c121 040d 38bc bfbf
000005b0: b5ca 8c42 8cd0 c53f d5dc 1992 d86d b13f
000005c0: 5358 deb9 053c a8bf 91ee c021 46dc a23f
000005d0: d295 2827 24dd b23f 3979 7d7e aeee b53f
000005e0: 44da b5e2 4c9f b63f 3a67 7037 3573 a2bf
000005f0: 9a8a 79fc 9541 b03f 6c6e 501a 594e b8bf
00000600: e110 fbe2 fdd9 913f 4277 c132 a85b 8b3f
00000610: 138e 0ee9 dff2 c3bf b921 8e42 e09d b03f
00000620: 472e 92b2 b54a ae3f 093e f8a9 dbc1 aebf
00000630: db81 2e7d 4433 a33f 42e9 18f6 5f69 a9bf
00000640: 5054 6e97 0633 a6bf fe51 3a03 99c3 a1bf
00000650: 3ba0 3587 a71c 773f 1dab 9d96 1742 9b3f
00000660: f427 3053 1c1f 783f 0f5d cc7b 4a0d 95bf
00000670: 1b04 11ff 47c4 b13f 0f33 c35c 45bd a3bf
00000680: a16b 3cc5 7608 8a3f e9b3 dea3 9dbd 783f
00000690: dbd7 b2e9 6c44 643f 13db 0591 87b2 c1bf
000006a0: e7b7 53d4 cbe0 bcbf 7a46 baea 4bfe 95bf
000006b0: dcbb 89c6 91b4 a13f 8833 a261 ee86 c03f
000006c0: 4e06 8565 7da0 a4bf 500b 2961 001b bcbf
000006d0: 2dac 930b 157e b73f 183f 52e1 2451 a83f
000006e0: ac88 b164 7a49 97bf 122c e74a eb34 babf
000006f0: 4595 897c 952c ac3f 27cd 4abd 4f11 a03f
00000700: f6b1 b1ac d900 a33f bd5e 064d 3454 973f
00000710: 36e4 344a 9579 a43f 6126 b028 7cb6 aa3f
00000720: 69ab 5810 8ec3 98bf d50e 5fe4 17ee 513f
00000730: 685f 9ca5 dd5f 94bf c0c8 75f3 2452 7bbf
00000740: a3bb dea2 27a0 a73f 8294 dd4d ad57 a4bf
00000750: 7630 58bd c8c2 a33f ffbb 1d68 ff59 abbf
00000760: 4f5f 3236 5587 983f 2c57 6f81 7a61 9abf
00000770: 250d 160f 25a2 b0bf 3466 28f5 563c a23f
00000780: 68d3 607e f469 b0bf 9601 7b72 c49a afbf
00000790: dd76 a315 d728 b0bf 95ba 20eb 1bdf b23f
000007a0: a0e9 afcd f3e5 b4bf 6378 b141 622d acbf
000007b0: c20f e382 380e 663f 5a56 eeb1 023c 5ebf
000007c0: d8c6 845d d95e b93f 14e0 e59b 392b aa3f
000007d0: 3555 c047 e80c a1bf c745 aed6 b7c7 b5bf
000007e0: 86e0 3900 f064 923f 284c 8939 0147 973f
000007f0: e76f 2819 2fd9 33bf d07c 3e07 7f76 a53f
-0.05532163687847229 -0.030325626620867574 -0.033820611951736905 0.04629491666975141 0.051766559896207515 0.0014956146727882953 0.08193219313528649 0.010248010166321878
-0.0321110807861189 -0.019594838321218697 -0.039104269035957005 -0.016180138130805766 0.0727809518930525 -0.07514511532580395 -0.09527624081059587 0.012820508741897326
0.0242747307529211 -0.00911635624797214 -0.08827351506222451 -0.06898216515286791 0.020143051962750846 -0.03644902811756707 0.11621474842339627 0.08993068178867514
-0.10007962026900265 -0.05247773932737039 0.043590004863540345 0.021901132706508442 0.05181110219338424 -0.026705492723030046 0.07371582013464983 0.10305590109238964
-0.012006203924206498 -0.061483235780871545 0.05332428844687251 -0.006927467787451372 -0.095658548899637 -0.0742570510518236 -0.007000841766571312 -0.11682987036781306
0.01654176099107693 0.02855542562944773 0.11979796231295953 -0.0708027465738502 -0.06064787136544362 -0.0012886334020525438 0.1445995688068942 -0.10929981588175768
-0.0074060893855969635 0.12698407091767516 -0.00751539871955254 0.034270812151098 -0.009342958095185403 -0.013960294455783739 -0.020346741726857007 0.011945184648503313
0.04788585401954659 0.08909278564353124 0.05596919456449469 -0.13139961124875685 -0.01204022707096539 0.08055175390228096 -0.10940449867617778 -0.09010244615260501
0.0482449169664024 0.05417676593941788 0.06188530844359643 0.0331351645728336 -0.03538296864425408 -0.1276615601528096 -0.07412863722158343 -0.06557136683111425
0.019261001945137985 -0.02369045987958599 -0.13198271407586662 0.08542877858305606 -0.05659719569282371 0.03927942313473387 0.013266273503260227 -0.07094407043785597
0.07318538140595308 -0.0332329389348998 0.0006517096876367458 -0.06737220470186563 -0.03415987988111863 -0.012402225213100125 7.896597872283818e-05 0.017792986821177
-0.04490005576692638 -0.010852530265454031 0.021198048548620018 0.03762573526256529 0.034455706030417886 0.056746177253431916 -0.013934152626667173 -0.017618139523315063
0.0529437716584255 -0.12529733037128618 0.0756774738982251 -0.03640978243716284 0.012396015048778863 0.014780575293415995 -0.050502137401003185 0.03459526049582787
0.02352633400959945 0.034642634847233726 0.0876559401965711 -0.06691341678558907 0.05693334563804014 -0.13002177703176004 -0.09170360526290013 -0.03689263140963161
-0.02970537411578275 -0.06956087796915805 -0.032512898274874594 0.03569436104518541 -0.10625415884413111 -0.0020263863174028816 0.029832821252723993 -0.06811195138082426
-0.05543661400587122 -0.0637828453388655 -0.09290903410964084 0.07197455931578177 -0.08439239075998273 -0.003597834796727939 0.025598935897322428 -0.10263275622276696
0.03738419234354636 -0.114646095253807 -0.013130251580108325 0.03734643925243611 0.07860375157474031 -0.0008235409293287018 -0.06589912026417782 -0.07055689774969376
0.02944164591232516 0.025463319445643007 -0.1677533652636652 -0.12493492830517448 -0.12470001900444556 -0.06615120791004045 -0.04330953643747667 0.029897679114287402
0.046794756932740884 -0.018935715423531268 -0.007895262973121939 -0.02845750251454154 -0.05661516367186966 0.09005865611240804 0.05725285698077039 -0.056064271353573794
-0.041695733660304955 -0.12099449075421041 0.06715662969666943 -0.0524756798004558 -0.07255760516446878 0.03706961367334498 0.018203416899257516 0.05211828483716901
-0.0974293673013726 0.09761367875521702 0.02569385378668566 -0.07017520430220664 0.10431084252705353 0.030006293556179946 -0.19441764275288964 -0.006483824095633618
0.011748121808804093 0.021730154064135174 0.0876775234655035 -0.08338505700748304 0.09564922882783691 -0.03537223639115234 -0.014321514630212055 0.11198196973309898
-0.025790216093247834 0.08351365655940753 0.008793643839732593 -0.018395357461336533 -0.09233576467213393 -0.12396574323441369 0.1704268765402809 0.06808236662787988
-0.047332934321432284 0.03683680688888303 0.07368684726733157 0.08567324245584453 0.08836823019905987 -0.03603521634813807 0.0635007611649975 -0.09494549648700862
0.01743313501243982 0.013358415650312264 -0.15584944610337512 0.06490899681933272 0.059163740204067276 -0.060072769640211084 0.03750051525208039 -0.049632071295905536
-0.04335804556391365 -0.03469541706468603 0.0056425613468960535 0.02661930901323749 0.00588904442248327 -0.020558513456390645 0.06940126397331918 -0.03855339772562704
0.012711456197896544 0.006040206700999009 0.0024740340428150826 -0.13826078969187758 -0.11280511792912727 -0.02147787685550504 0.03458076046523903 0.1291177727438504
-0.040286940233738563 -0.10978700992658941 0.09176761181485978 0.04749408007148598 -0.022741234203188895 -0.10236998156248969 0.055027648403476216 0.03138207612701143
0.03711586220819989 0.022782151414132857 0.03999010592310308 0.052173500029380156 -0.024183482883170102 0.0010943635293054106 -0.019896949036677297 -0.006670135822206713
0.04614375937614248 -0.03973142219073457 0.038595460046139715 -0.053421002826205204 0.023953753884227876 -0.025762476110535434 -0.06497413271249693 0.03561660521172563
-0.06411674580961135 -0.06172765634028392 -0.06312317159924015 0.0737168740313144 -0.08163379451426644 -0.055033751029200294 0.002692327855671168 -0.0018453623122004687
0.09910353215380086 0.05111103084612992 -0.033301600226119644 -0.08507870665768912 0.01796317101840874 0.022731799256075075 -0.00030286216602504055 0.04191967929295404

policy_graph_hap1.weight_u f8 [1]
00000000: 0000 0000 0000 f0bf
-1.0

policy_graph_hap1.weight_v f8 [264]
00000000: 8707 55b0 61d6 aa3f 490a 2701 136c 9d3f
00000010: a86d ab2b 3a68 a03f 48b7 5b0f 4775 a6bf
00000020: 1300 8d88 fb1c a9bf ed5c c642 703c 57bf
00000030: ea5c 0de2 97df b3bf cfb1 3ebc 2ae3 83bf
00000040: 81ff 90f2 7127 9f3f 2401 87ad c102 933f
00000050: 7d44 26fb 63f8 a23f 8303 a588 fa65 8f3f
00000060: 4a60 51cf 4ca7 b1bf edd1 32f8 0d3a b23f
00000070: 3b42 551d 201c b73f 4767 5649 53e0 88bf
00000080: 92db 3125 6a8d 97bf fdc7 74a7 56b0 813f
00000090: 88c8 e8bc 4a69 b53f e1c4 1e08 69bb b03f
000000a0: fc01 395b 1e8b 93bf 6686 4b56 a5ae a13f
000000b0: 4e96 fa41 5530 bcbf 2e01 60d5 37d0 b5bf
000000c0: 560c 38e1 6746 b83f 92f2 fc87 3675 a93f
000000d0: f2bd 31ea 5e25 a5bf f029 b2f4 0840 95bf
000000e0: b784 bbb5 6122 a9bf b429 a532 d6e8 993f
000000f0: 27f8 aa03 4ce1 b1bf ffda 384d 2bff b8bf
00000100: cc15 c061 484c 873f 3e64 f387 8ad3 ad3f
00000110: 6c2e 25df 57de a9bf 5701 d9be b5e2 7a3f
00000120: 0f05 1749 d833 b73f e26c b635 fa02 b23f
00000130: b18a 340f 312c 7b3f 442f 9949 7856 bc3f
00000140: 89b4 69b5 c00c 90bf 644a 81da 69b4 9bbf
00000150: 0bb4 03c0 d00e bdbf 56c7 e85d 762c b13f
00000160: 0d61 b856 db6b ad3f 03f4 4980 a603 543f
00000170: 8a6b b3d7 6f89 c1bf 7542 dfe0 e082 ba3f
00000180: d785 532c 1fbe 7c3f d6ae 92e0 0ccd bebf
00000190: 6e49 a402 102a 7d3f 17a2 28b9 21a0 a0bf
000001a0: 6a04 a455 ae20 823f 8a75 4e69 3017 8b3f
000001b0: 6749 df5a a7bd 933f 124b 0058 832d 87bf
000001c0: d23d 17ce ff3a a7bf 974c 419d 299c b5bf
000001d0: f69b 383b b126 abbf 15c4 d6ce 26df bf3f
000001e0: 5234 56fd da5c 873f a7b0 7df0 d889 b3bf
000001f0: 4038 7cc8 5f89 ba3f baa5 f12c d8da b53f
00000200: 02ee 2eca 9f67 a7bf 7106 f475 0a48 aabf
00000210: 6c4c 9113 8a05 aebf 3fde 36cb f412 a0bf
00000220: a680 9e1c 1a2a a13f 0a60 55e6 0af7 be3f
00000230: 8b85 1a30 01fb b13f 7f02 3f53 3dcf af3f
00000240: 86ff 72e3 3db0 92bf 19b3 a576 45fc 963f
00000250: 5471 afe8 af01 c03f ff14 c6a9 9fb8 b4bf
00000260: 3e70 8873 d774 ab3f 2b8e eab3 290e a3bf
00000270: 94c9 8dc2 debd 89bf c753 524c 4235 b13f
00000280: 01d1 27e5 7ac0 b1bf 7308 ef53 221f a03f
00000290: 98fe e47a 1e3f 44bf 194b d604 6c57 b03f
000002a0: d86a 8e0f 3192 a03f 32ea c3af a610 883f
000002b0: f9f8 7676 708e 13bf fc6a 244a 3c43 91bf
000002c0: ae08 52f6 23c8 a53f 27bc 4d4f b40e 853f
000002d0: f3e4 61b5 eb90 94bf 041f 39ac cb40 a2bf
000002e0: f13c 8292 14b7 a0bf 8ed5 ff4c 4b87 abbf
000002f0: af47 3fd6 f209 8b3f 7914 6f37 d917 913f
00000300: ac35 6e01 f4ae a9bf 7087 af6f 4464 be3f
00000310: 21d2 0745 3a5b b2bf 1cb3 262b caa9 a13f
00000320: 4e53 70c6 4e0e 88bf b0b1 8ffd c6ae 8cbf
00000330: 94e1 7c53 dd7f a83f fbc8 2fc1 7bc8 a0bf
00000340: 7531 1818 41d3 96bf 4c40 1bbb 4ace a0bf
00000350: 1a8d 7098 0043 b5bf 62bc 073f f53a b03f
00000360: b031 57d3 639e abbf af3c 11ed 9d89 bf3f
00000370: 71a5 9cd7 453e b63f 18bf dc9d 85e5 a13f
00000380: 1da5 6a92 42d2 9c3f e779 a6ef 4bdf b03f
00000390: a47c 1776 3f8b 9f3f f21a 69fd c550 a1bf
000003a0: 777d db67 ccc5 b93f 911f e7aa 3871 5f3f
000003b0: 3330 f5a9 b1f1 9cbf 81e8 a6ce 6685 b03f
000003c0: e8a1 6a6c 87e4 aa3f e388 dc2d 1ff1 ae3f
000003d0: fd8f 5072 2789 b63f cab2 bb6a 3f75 b1bf
000003e0: 3f83 3e34 4578 b43f 5c76 e3f2 76eb 6b3f
000003f0: 0d74 a9e8 67d6 98bf 500e 62d4 e5e4 b83f
00000400: 6df9 3cc9 8f22 a2bf 2ad1 55d7 dfce bb3f
00000410: e7e2 f509 f77a 893f 57c4 62b6 131e a2bf
00000420: 65ea c83a e710 b3bf f4bf 3bed c292 493f
00000430: 574e 302a d3f7 af3f 3c2e 4243 3a1d b13f
00000440: 5c95 99b8 a890 9cbf 3a44 d231 bcb4 98bf
00000450: 1c16 4bb1 4258 c43f 89aa 1d51 c14d be3f
00000460: 814b 7644 253f be3f d8df 74d7 960b b03f
00000470: d973 b95f ab02 a53f 360b 924f e701 9dbf
00000480: c47c b181 4db3 a6bf 0fee 4147 075f 923f
00000490: 9563 1e17 58a3 7e3f 1194 8398 649c 9b3f
000004a0: c94f 3587 f276 ab3f 474a 747c 1ad8 b5bf
000004b0: 0c7c 4574 19c6 abbf 0c1b 13fd 7832 ab3f
000004c0: 2693 6205 2e3a a43f 9f81 57b4 1359 bd3f
000004d0: 7763 3852 194a b0bf ae94 517b c974 a93f
000004e0: a881 ceec 7299 b13f 1a31 9ab2 a1fb a1bf
000004f0: 0e9b 4f86 8ba9 91bf 4699 7209 a248 a9bf
00000500: 0794 14db d5a1 b73f 8d3d 4911 48ad b7bf
00000510: 3812 dc5c e2ed 98bf 7b14 f39d 7b05 b13f
00000520: e41f 40e0 324d b9bf 8a8d 7785 1c1d 9dbf
00000530: 1973 239d 1c94 c73f 4e04 e786 e228 793f
00000540: f0a4 f1b1 68cc 86bf 5348 8114 5c15 95bf
00000550: 529b 2304 4c44 b5bf 2a5e 9284 c539 b43f
00000560: 1755 3e66 5833 b7bf 9196 df17 ee28 a13f
00000570: f81b 7c8f 10ca 8b3f e894 1edb 7a29 bbbf
00000580: af13 79d5 9805 993f 685a e73f ca41 b4bf
00000590: ce13 d48d 8810 81bf 613e 0aa2 25d9 913f
000005a0: 9db7 e8fe 8e65 b63f f735 f4f7 9511 be3f
000005b0: 7e12 b230 4eab c4bf e23b 5741 7e83 b0bf
000005c0: 8c98 f8ab 25f6 a63f 7d9c 575c c8de a1bf
000005d0: f088 0e3d 8cdf b1bf 8cb3 d7c0 dec7 b4bf
000005e0: e85d 2dc2 326f b5bf 3022 c000 097b a13f
000005f0: 7ba0 e4c4 0dce aebf 798a 8e9b 8b07 b73f
00000600: ac75 4766 cfe9 90bf 4b4e e020 e8eb 89bf
00000610: d188 6b99 ace6 c23f 152e e12e 097d afbf
00000620: 0be0 e054 9db3 acbf 64b7 ca3f 6924 ad3f
00000630: 5590 a4b6 3b31 a2bf 8cda 1c43 d313 a83f
00000640: 4f88 9535 8708 a53f 8d21 4b6f b3d4 a03f
00000650: 422c 18e1 f3e6 75bf d0ed 7717 bad3 99bf
00000660: 350b 8508 4cda 76bf 7fb8 6a2d 66f2 933f
00000670: 8ac4 22bc 79d5 b0bf e2aa a659 f6b3 a23f
00000680: e51e 5e7b bcaa 88bf 84a9 878b 7f71 77bf
00000690: 9c90 4148 ff35 63bf 061f a65e 99c4 c03f
000006a0: e6ca 87cb 8a5c bb3f 3369 0bb8 70d6 943f
000006b0: ee48 3dab 75c6 a0bf c31c 841e 8651 bfbf
000006c0: 2fbf 552e 198b a33f 125a a470 23a1 ba3f
000006d0: c87a 67e9 4642 b6bf 9edb be24 520a a7bf
000006e0: 2270 aeb1 4910 963f 9cd0 765d 9dd4 b83f
000006f0: 8973 0c1e dfb1 aabf 20c0 e041 8072 9ebf
00000700: d250 0069 7501 a2bf 205c b16a 9d1a 96bf
00000710: 6734 9a27 3766 a3bf c1ae e500 4c4f a9bf
00000720: 4f1e 9ae8 c576 973f e5e6 2905 65fd 50bf
00000730: 57d7 515c b34d 933f b1f4 d6d9 45e2 793f
00000740: 8dd8 c723 9062 a6bf 771c 20f9 1a46 a33f
00000750: ce42 9543 14b9 a2bf 8875 b9d0 5aea a93f
00000760: d391 b1c1 6e3d 97bf 8bba 20f9 f4fe 983f
00000770: d3e9 7c19 1f85 af3f 6b1f 3c69 2347 a1bf
00000780: 9cf8 4994 971a af3f 08a1 3709 f7f1 ad3f
00000790: bba1 931e 229f ae3f 871e 04b7 7ce1 b1bf
000007a0: eccb 0021 01cd b33f 274b 1353 a9b2 aa3f
000007b0: e2f9 90ed 09e5 64bf 1e47 5bab a0a4 5c3f
000007c0: 5cf1 b538 bf09 b8bf 8c34 6488 5ccb a8bf
000007d0: 4630 6f17 c927 a03f 277f 747c e5a2 b43f
000007e0: 3f3b ef02 b36d 91bf 1f8c 585e 540e 96bf
000007f0: 5661 c3be 7ed8 323f 3258 32ca e255 a4bf
0.052416851782722644 0.028732582993834552 0.03204519064976391 -0.043863506912983186 -0.04904924432639759 -0.0014182182595499596 -0.07763051289417758 -0.009710630292681181
0.030423908643796963 0.01856520291926346 0.03705131951131422 0.015331227583944123 -0.06895904599639482 0.07119834241422725 0.09027291027201383 -0.0121466166263421
-0.023000391502559454 0.008637120232922508 0.08363787757915209 0.06535965393301836 -0.019085382764616896 0.03453556707769394 -0.11011250363170541 -0.08520840606070543
0.09482430695065722 0.049722389316660856 -0.04130074127976603 -0.020752086577468576 -0.04909043639578086 0.025302264062057225 -0.06984400834605307 -0.09764357219033214
0.011375966532805835 0.05825455579333337 -0.05052446936551011 0.006563863700251047 0.09063483986303232 0.07035793124525783 0.0066339413054118815 0.11069442555270564
-0.015673647949757927 -0.02705541034840521 -0.11350731551983999 0.06708469193179431 0.05746350701901024 0.001221573446996916 -0.13700674087780512 0.10355954637567229
0.007017251749148432 -0.12031631930102135 0.007120192089376294 -0.032471708156951155 0.008851396549746055 0.013227823461245309 0.019278159066581504 -0.011317278025705178
-0.04537200346714666 -0.0844141014979861 -0.053029573897497004 0.12449877309588005 0.011407576423858288 -0.0763221346985029 0.10365866322192208 0.08537055108322181
-0.04571246474321457 -0.05133087816103633 -0.058636011971110985 -0.031394624525486574 0.0335243377624022 0.12095707057358154 0.07023627685932447 0.06212798730075963
-0.0182504339288694 0.02244671379723959 0.12505148755634343 -0.08094213385455261 0.053625805714745386 -0.037217429363661424 -0.012569179832756551 0.0672189174968728
-0.06934326262109282 0.03148753428060127 -0.0006178759411241295 0.06383395307629448 0.03236535372635324 0.011750509489947356 -7.460175913018623e-05 -0.016858045602115887
0.04254257566300744 0.01028195254340687 -0.020084078736975774 -0.03565060117085575 -0.0326467923015289 -0.05376658739980221 0.01320256916361359 0.01669253731576645
-0.05016291158163297 0.11871745802593892 -0.07170452294651188 0.034498517768360965 -0.011746039801474286 -0.014005236256672798 0.04785052913797752 -0.03277956708179094
-0.022290246101009232 -0.032823882427351764 -0.08305362435981004 0.06339962757896125 -0.05394279436913807 0.12319361722733178 0.08688770784342183 0.03495423843412321
0.028145828424986797 0.06590723610722869 0.030804626066921373 -0.033819377120883135 0.10067441497402806 0.001919083918993512 -0.02826573943939099 0.06453554673399432
0.05252478788799292 0.06043336329300233 0.08803030529867324 -0.06819530826369227 0.07996017957203792 0.003408176729051955 -0.024255393577153273 0.09724270281918135
-0.03541993457337154 0.10862540251929845 0.01244156836649908 -0.03538571931256545 -0.07447667298485212 0.0007804347792141884 0.0624376286506531 0.0668522276120535
-0.027895580546461005 -0.024126949826101397 0.1589434972467395 0.1183739493405175 0.11815102502286658 0.06267683754128883 0.041035991129980416 -0.02832757399711313
-0.04433672149820603 0.017940629696097384 0.007479995825541948 0.026963779267038804 0.053641871457017105 -0.08532872713502924 -0.05424575371102244 0.05311945046701369
0.03950637641654557 0.11464045670391564 -0.06363065965014224 0.049719139388608155 0.06874769479191534 -0.03512292199329377 -0.01724832541722337 -0.04938227048232817
0.09231316183702641 -0.09248781606696906 -0.02434495631952613 0.0664899120921109 -0.09883420920243641 -0.028431363722018634 0.18420751259591198 0.006142506476352129
-0.011132066660325596 -0.020589293242956618 -0.08307337857295963 0.07900652395834898 -0.09062721725634436 0.03351539651320679 0.01356900155907502 -0.10610168313594992
0.02443541338859106 -0.07912887630605214 -0.00833231623483668 0.017429912581575006 0.08748716090550919 0.11745583823741144 -0.16147782685961326 -0.06450642676575982
0.0448467037606842 -0.034902821800465646 -0.06981731882709474 -0.08117477615424046 -0.08372800102858202 0.03414180883561746 -0.060165815624999085 0.08995888278745125
-0.01651691495668721 -0.01265698767023262 0.1476646184083337 -0.061500822994812555 -0.05605785046685704 0.056918419873325715 -0.03553186993147565 0.04702625459906526
0.041080689707783884 0.03287277921259877 -0.005347206738870959 -0.02522173660507382 -0.005579277997017231 0.01947936680033324 -0.0657573780361124 0.036529253429156375
-0.012044403567201776 -0.005723474715049529 -0.0023450838071302337 0.13099972840813495 0.10688083142285229 0.020349274857701615 -0.03276412692379603 -0.1223377060415372
0.03817061129200138 0.10402127742813885 -0.08694880674691341 -0.04500061701349199 0.021546508283435746 0.0969942429717911 -0.05213830224804556 -0.029733661671514366
-0.03516737849000297 -0.021585902821552705 -0.03788921698024055 -0.049433112248917783 0.022914020845318735 -0.0010369764828780878 0.018851091871020156 0.006319306235522835
-0.043720726363901986 0.037644236479587194 -0.03656829190243159 0.05061610982805137 -0.022695284435387663 0.024410083489949257 0.06156251131183734 -0.03374586734395176
0.06074975667159885 0.05848667132869606 0.05980784056902474 -0.06984691112676887 0.07734686904659299 0.05214432849029143 -0.002550620451557282 0.0017482346569761063
-0.09389872679270667 -0.048426524781555264 0.031553539381633786 0.0806106022687315 -0.017020031980617075 -0.021539037950912495 0.0002875623165557081 -0.03971775739880491

policy_done.bias f8 [1]
00000000: d336 e35c 8552 a8bf
-0.04750458487397471
