data/models/ralphi.v2.short.pt (torch, 29365 bytes, 17 tensors)

policy_graph_hap0.bias f8 [1]
000000 4c 28 9d e4 d3 53 a9 bf
       -0.049467679650277846

policy_graph_hap0.weight_orig f8 [1, 264]
000000 3a 5e 24 ee b5 28 b1 3f 49 cc b6 d1 b0 23 b0 3f
       0.0670274454499741 0.0630445968625263
000010 64 28 77 54 8a 02 a6 bf a9 8d 80 6b b7 8a 97 bf
       -0.04298813134262572 -0.022990098892604092
000020 87 84 1b 58 ff 3f b0 3f 82 0b 07 b9 57 f1 90 3f
       0.06347652340947905 0.016545649212058595
000030 32 9b 06 3d 0e f9 a3 3f a2 0a 17 35 b1 3a bf bf
       0.039009518575133476 -0.12198932214873051
000040 ba 77 5e 7a 1b 18 a9 bf de bc 41 cf 1b 19 b8 bf
       -0.04901204937708266 -0.09413312730770282
000050 7f c5 e9 7d da 61 b9 3f 67 06 14 7e d2 2d b1 3f
       0.0991493756680679 0.06710544183808907
000060 c2 c5 44 ec 14 04 b3 bf 6d f7 91 0d 12 ab c5 bf
       -0.07428103225972563 -0.16928315794569518
000070 7e 6b 90 f3 43 61 9a bf dd 53 11 ac 5b 32 a0 bf
       -0.025761663189864496 -0.03163420176921481
000080 ed 75 dc 1b d9 2c a5 3f 03 0b 2a 61 d5 b4 93 3f
       0.041357788706800715 0.019244512610849373
000090 ae 04 12 33 9a 97 c4 3f fa 66 95 cc 1b 77 a5 3f
       0.16087653630896653 0.04192435142858915
0000a0 4d 2f d0 7f 82 73 b2 3f 76 dd b6 1f f7 06 9c bf
       0.07207503910484299 -0.027370320616424824
0000b0 46 63 f4 b3 d7 d2 ae bf f3 10 a2 39 04 1d a3 bf
       -0.06020235130035316 -0.037330753360068324
0000c0 cc 8f cf 69 32 bf 79 3f 4d 26 b4 51 f2 61 81 bf
       0.006285855223698133 -0.008487599485778175
0000d0 72 70 78 6b 96 fc b2 3f e6 fe 0b 7f 40 a0 b2 3f
       0.07416668056288403 0.07275775052766739
0000e0 42 49 5e fd 82 bf c1 bf 29 ae b7 b1 23 e5 9a bf
       -0.13865697261332782 -0.02626472255898996
0000f0 08 52 45 32 a2 68 76 3f 18 29 0a b6 b6 e8 b2 3f
       0.005470880107470773 0.07386342949226721
000100 76 9a 44 05 ad 9a 7d 3f 58 31 4c 56 7b 0c a4 bf
       0.007227588521607422 -0.039157728466394814
000110 ab ce 02 71 4d 12 aa 3f 7c 99 5b b3 19 74 a8 bf
       0.05092088703659433 -0.04776077570368195
000120 66 0c 43 d5 2b 66 aa 3f 9a 24 c8 11 ef b6 47 bf
       0.05156075456900382 -0.00072371171296583
000130 39 f1 f2 d2 b6 24 c3 bf d2 a2 db f2 09 de ac 3f
       -0.149557927133978 0.05638152207922577
000140 f5 70 3f 36 18 e7 8b bf 55 59 7e 7f 5f 8d a7 3f
       -0.013624371676933292 0.046000465691735805
000150 12 d9 93 c8 e8 1b ac bf 99 7a ad a3 80 f8 bd 3f
       -0.054900431141435516 0.1170730971912043
000160 3f 35 c6 30 55 72 b0 3f 7b b6 22 b3 fe 13 ad 3f
       0.06424457970407092 0.05679317414010839
000170 0a 15 c4 55 95 f6 6a 3f c9 c9 8a 6f 21 ac b2 bf
       0.0032914082240745922 -0.07293900464245619
000180 fd 3a 2b e9 4b cc 6c 3f 71 70 c1 24 14 c1 a4 bf
       0.0035153849251864364 -0.040535573469896564
000190 ae 1f 3d 94 62 d9 a6 3f 24 04 15 a2 83 ab c0 bf
       0.04462726649813874 -0.1302341977516629
0001a0 a2 ea ed 3c d2 81 b9 bf a7 01 54 76 84 60 9d bf
       -0.09963716495068778 -0.028688497278382432
0001b0 fd ea b4 d8 c5 71 b1 bf 75 bd 32 16 ed 32 a7 3f
       -0.06814228573504617 0.045310410461179375
0001c0 a5 33 fb 1b 4d 03 81 bf fd 67 d5 84 e0 9f 98 bf
       -0.008307077804966154 -0.02404738245727599
0001d0 78 77 76 55 66 f5 bb 3f 44 23 73 a8 0f a7 a2 3f
       0.10921325289242911 0.03643082553168722
0001e0 ca 6c 0d 9e e1 dd 78 3f 97 22 ac fd 70 5f b3 bf
       0.006070977514208662 -0.07567506974386116
0001f0 c8 e8 1f 2c e0 a2 a1 bf 6b 4d da 9e 3c 2e a5 3f
       -0.034445767771062175 0.041368383780674055
000200 49 e2 14 97 92 f3 a4 bf 82 fc fa 6b 22 9c 9b 3f
       -0.04092081159837286 0.0269627931982055
000210 82 aa 05 81 ef 23 99 3f 70 d6 cb 7c 87 75 7a 3f
       0.024551145791898772 0.006459740875234141
000220 25 27 2b 8b 2b bc ba bf b5 3f b6 9e 7b c5 71 bf
       -0.10443374774618215 -0.004338724985600996
000230 b6 7a f1 80 52 42 9f bf e7 21 08 d3 cc dc 8e 3f
       -0.030526436920235787 0.0150695802594933
000240 26 0e ca 84 85 82 a0 bf f2 60 0a 81 f4 10 bc 3f
       -0.03224580045664664 0.10963371420291759
000250 28 b1 4e 36 d6 d5 93 3f 2a 4d af 47 5f 9d b6 3f
       0.01937041002717979 0.08833880901447758
000260 cd dd 05 55 7b a4 94 bf 70 dc 2f 2c 24 c5 91 3f
       -0.020158698143374388 0.017353596875150534
000270 f2 89 f5 3c 49 f3 b4 3f 7d f8 d5 aa a4 cc c4 3f
       0.081837251074411 0.16249521581261553
000280 cd 16 c1 51 df 21 a6 bf 0c 7c ea 78 00 59 b7 bf
       -0.043227175454871515 -0.0912018103795022
000290 73 f8 92 e0 08 92 63 3f 99 b3 13 b1 8e 52 71 3f
       0.0023889706977505087 0.004229123486976593
0002a0 d0 17 9a e0 95 8d 9e 3f 2c cb 6e e5 3f 92 78 bf
       0.02983698066102375 -0.005998849482170592
0002b0 d1 79 d0 99 14 a4 5f bf 1e a3 34 83 37 16 90 3f
       -0.001931209676747526 0.0157097505408813
0002c0 f6 09 78 db 14 cd 92 3f d5 b4 99 39 f9 ca 98 bf
       0.01836044873744843 -0.024211782589578974
0002d0 6d 63 20 10 83 d4 9b 3f 6c 69 c4 6c b2 b0 8b 3f
       0.027177856311115734 0.013520616478264379
0002e0 90 7c 1a f2 79 6a a7 bf a9 8f 3c 2b bf ca 97 3f
       -0.04573422508587399 0.02323435498614371
0002f0 e1 56 6b 86 3b 91 a6 bf 0c 64 8c 05 c4 5f b6 bf
       -0.04407678619251754 -0.08739876876315139
000300 89 49 21 42 d0 fe b2 bf d5 79 74 0c ec a5 ba 3f
       -0.07420064558508534 0.10409426979138144
000310 a0 a1 50 39 57 b9 a6 3f d2 79 9f bb 6e c3 a7 3f
       0.044382787462669215 0.0464129070312428
000320 ab 8b 4d 8a 79 68 b3 bf 38 46 dc 60 0a 2e 9e bf
       -0.07581290842567394 -0.02947250572385071
000330 90 33 fe 3b 5f 5b ac bf 18 75 25 83 ac 6d b7 3f
       -0.05538461310707199 0.09151724054159549
000340 8d 97 0d 82 e9 1c a9 bf d2 09 90 3a cc ed c2 3f
       -0.049048707128164094 0.14788201198105227
000350 07 c8 48 09 89 2a 95 3f 9b 26 e1 47 01 89 95 3f
       0.02067007178465732 0.02103044511048911
000360 f6 bd 8c bf d2 18 97 3f 23 b0 2d 4a ad c7 b1 3f
       0.022555630627889976 0.0694530778980043
000370 fc 70 07 f0 2d c5 b6 bf 0c f8 d2 9e 72 3a b3 bf
       -0.08894621954044973 -0.07511059167424622
000380 94 7e 98 d9 c1 ba b1 bf 49 48 71 18 45 ee a8 bf
       -0.06925593912500921 -0.04869285510416483
000390 54 ad fd 60 7d 7b ba bf 8d 3b 6e 24 19 fe 6c bf
       -0.10344680421774416 -0.003539132219379798
0003a0 4d f3 7c 29 82 68 b1 3f 8a 2c 5d 8b 92 0c b4 bf
       0.06800092232601891 -0.07831684019508792
0003b0 16 57 a5 7e a1 03 af 3f dd 4b 47 09 80 ea 91 3f
       0.06057457610101673 0.017496109548868922
0003c0 20 50 8c 62 4d c3 b1 3f 14 6a ca 0f 12 bd 95 3f
       0.0693863263698522 0.021229059423243227
0003d0 02 21 96 2b 0c bc a2 3f 9c 42 bd c3 a1 5e b1 bf
       0.03659093887387323 -0.0678502180937905
0003e0 ab 22 c9 d3 69 f3 a5 bf 9e 3f 32 d2 55 78 aa bf
       -0.042872721770043164 -0.05169933501122091
0003f0 03 87 02 79 f4 fd b1 3f 82 64 55 8b cc ab a0 bf
       0.07028129534094422 -0.032560722359172636
000400 36 45 ae 30 4f 84 93 bf ef 9b 30 a4 13 95 70 bf
       -0.01905940756438903 -0.004048420642937408
000410 db 7e fe a0 22 6e af 3f 24 1d 7e 75 56 b5 a4 bf
       0.06138714041958134 -0.040445997087824176
000420 74 5c f3 94 50 c6 a6 bf 49 89 f8 3b 09 47 b0 3f
       -0.04448177164311398 0.06358392442829087
000430 ca 72 2d 3a 73 0f b3 3f 9d cc 16 c2 27 8a a7 bf
       0.07445449991559908 -0.04597591633082596
000440 80 fc 11 ca e5 b3 88 bf ac 31 7c 3c 6b 33 9c 3f
       -0.012061877469248694 0.027539897505492725
000450 d8 fc 9b 20 7d 49 ab bf d3 50 a5 48 e3 79 92 3f
       -0.05329504988730499 0.018043090161271657
000460 b4 7c c4 59 dd ab a0 bf 33 5d 7e a6 d9 ab 79 3f
       -0.03256122322840707 0.006267404743901128
000470 f9 a3 0c c3 6c 05 9e bf f8 86 2e 9a ef 51 9d 3f
       -0.02931756916510506 0.0286328733305998
000480 2b 74 94 60 37 21 9f 3f 6d d3 f2 d8 54 ce b9 bf
       0.030400147695321216 -0.10080461784930402
000490 58 e2 6b 9c dc 2a b0 bf 34 3b d9 98 bb ad 99 3f
       -0.06315401858217606 0.025076800541053504
0004a0 46 77 80 7a e5 57 a6 bf f2 41 56 b4 6d f6 9a 3f
       -0.04363934631713433 0.02633067525090555
0004b0 66 a2 48 7a d7 c8 c1 3f 2c fa 4d 32 73 14 8b 3f
       0.13894170256505162 0.013222599003481404
0004c0 79 17 6f 8d 9e 1a ad bf bf 05 0d ec 42 1e b3 bf
       -0.056843714489828785 -0.07468050253830592
0004d0 5e 3d 75 45 95 54 a7 bf bf 10 7d 00 30 55 80 bf
       -0.04556719277263242 -0.007974982275876006
0004e0 b1 fb c6 02 d0 0d a9 3f 8c 1c 10 18 b8 68 b7 bf
       0.048933506335280604 -0.09144163691972745
0004f0 37 cf 38 55 43 b2 b9 bf ec 5a 7e 2f 25 95 9b bf
       -0.10037632780659754 -0.026936131500032198
000500 96 c4 67 fc 73 be 9f 3f f2 7f 89 51 f4 95 a3 bf
       0.030999958305930685 -0.03825343604398758
000510 9f 70 81 e3 c6 34 89 3f 7f 4e aa 93 79 00 81 bf
       0.01230769521514957 -0.008301687067876927
000520 e9 e8 78 76 bb 4c b0 bf 73 d0 5c e9 1f 84 94 3f
       -0.06367084162130578 0.02003526555854802
000530 82 43 50 e3 b7 5f a7 3f 74 60 e7 64 e1 d7 a6 bf
       0.04565214776824346 -0.04461578709350614
000540 31 8e 29 0d 38 c8 b0 3f 6c 89 64 ee 61 02 83 bf
       0.06555509873720024 -0.009281888091724887
000550 9d dc d7 dd 9b dc af 3f 79 ea f4 ce 66 63 60 3f
       0.062229986982793785 0.0020005233742755282
000560 4e df d3 d5 2e 1a 86 bf 25 b4 87 46 18 57 9e 3f
       -0.01079212751436356 0.029629115395369738
000570 bd 14 62 8b 34 45 b4 3f fa 3b 9e 00 9d 97 bb 3f
       0.07918098833950445 0.10778218522158048
000580 70 c8 f3 a0 c7 88 b1 bf 88 04 c4 c2 4b ec b0 bf
       -0.0684933441114326 -0.06610558991453008
000590 36 0b 43 46 f6 17 94 3f 2f fe e0 bb c0 0f b2 3f
       0.01962265781254332 0.07055286967169459
0005a0 60 22 81 b1 35 6c 90 3f 59 16 82 2d f1 c3 9b bf
       0.01603778739834849 -0.02711464729556776
0005b0 dc a7 35 fc 89 7b b3 bf b4 98 e2 2c 4a 78 af bf
       -0.0761038056131435 -0.061464612940925006
0005c0 65 84 be 9e bc 3c b3 bf 5e b0 db 92 16 ad af 3f
       -0.07514551997748382 0.06186743300153873
0005d0 aa 37 23 70 78 97 82 bf ad ec e8 59 34 46 a9 bf
       -0.009077969476859089 -0.04936374280483711
0005e0 db 44 cf ec 5e ea 93 bf 30 84 71 9c 62 57 9e bf
       -0.019448741153443954 -0.029630223082112106
0005f0 ba c3 80 aa f3 a4 bc bf 98 87 b3 44 4b 72 81 bf
       -0.11189196503325052 -0.008518779787156025
000600 75 2f 82 45 f7 46 b6 bf 5d f7 81 27 27 91 9e 3f
       -0.08702035376535185 0.029850589548451868
000610 7f c8 8d 1b 06 d7 b6 3f 54 d3 c0 e4 0b f5 9b bf
       0.08921850369168459 -0.02730196555804139
000620 3a e0 fa c3 45 92 96 3f ac 20 03 84 9f 4f aa bf
       0.022042360388440076 -0.051388726105473154
000630 16 c7 da d0 3e 4d 87 3f 3f f5 3f c1 d9 ca 99 3f
       0.01137780260919245 0.025187876148256235
000640 4a e0 d8 5e 4c 64 a8 bf 0e e8 68 e6 3d 36 be 3f
       -0.04764021547129056 0.11801516413916621
000650 8c d6 a4 2a 2a c0 9e 3f 41 e6 8d d8 5f df 93 3f
       0.03002992520597174 0.019406793205666743
000660 53 73 90 72 19 d8 98 3f 0e 53 04 83 ea 55 a3 bf
       0.024261853806922428 -0.037764862530968654
000670 0a 66 72 a7 b5 3a be bf f7 1c 58 43 04 48 b2 3f
       -0.11808333719309175 0.07141138691087066
000680 5a 15 4f 6f 35 05 a0 bf 34 21 f7 3a c0 da 85 3f
       -0.03128973945380649 0.010671140479545295
000690 1c 86 0d ea 6c 17 a4 bf 67 9d 77 6a 95 70 6a 3f
       -0.03924122197237187 0.003227512195497151
0006a0 d5 d3 75 4a 7e ae bd bf ca 8a b6 1e 6a c0 bc bf
       -0.11594380681874779 -0.11231101274328661
0006b0 63 cd 46 36 fc 28 a0 3f 9e 41 9f 4e 6d 1c c1 bf
       0.03156269228511623 -0.133680022611327
0006c0 01 48 a9 ee 0e 85 a0 bf 0f a6 2e d2 a7 39 b0 bf
       -0.03226515448899648 -0.06337975388910187
0006d0 de 24 80 a5 41 b8 c2 bf c8 d6 f2 85 64 55 74 3f
       -0.1462480600460258 0.004964249295132901
0006e0 01 22 5f d7 4b c1 bd bf 28 ce e9 20 d4 f6 9e 3f
       -0.11623071678253184 0.030238451489323165
0006f0 50 ae 6c 90 35 78 a2 bf 11 67 71 ad 62 ec 99 bf
       -0.036073373680065246 -0.025315801464194602
000700 b7 e7 b6 0e 23 bd 97 3f 84 b2 24 87 c0 35 92 3f
       0.023182437680339976 0.017783172844405573
000710 77 67 b3 09 36 9e 95 3f 8a f6 3b 21 aa 34 66 3f
       0.02111133989533395 0.0027106592987127852
000720 57 c7 f0 e0 5e da a3 3f 12 40 fd e7 ac 51 b1 bf
       0.038775410612642496 -0.06765251792717233
000730 69 60 fd f9 01 74 a3 bf b2 44 b9 f0 a5 e7 86 3f
       -0.03799444367058486 0.011184021385960061
000740 44 84 cd 8a cd 91 b3 bf 99 c5 2d 07 37 43 8b bf
       -0.0764435256837866 -0.01331179609926174
000750 dc 9b 4c e6 33 d9 b8 bf 6b 2b b1 32 12 a8 01 bf
       -0.0970642506841694 -3.367715393006492e-05
000760 51 44 25 1d 25 2f a3 bf 11 cb 68 b0 18 08 8a bf
       -0.037469062621888434 -0.012710755237184597
000770 77 bd 20 ba cb 1a 84 3f 19 5b f7 c9 1d 13 99 3f
       0.009816733949348884 0.02448698563770355
000780 b7 1a 09 92 4d f7 b3 bf db 87 44 88 d7 b1 ae 3f
       -0.07799229445763954 0.05995057619499252
000790 ed 46 9b 67 b0 e0 b7 3f cb 07 98 6a 09 a4 aa bf
       0.09327223329026042 -0.05203275133318604
0007a0 3d c1 0c 1e d2 9c 9f 3f 02 c8 ac 47 06 73 9c 3f
       0.03087166126641815 0.027782533764543878
0007b0 9a f0 2a 92 53 b0 b9 3f 1c 80 8c 15 35 6f a8 3f
       0.1003467780928439 0.04772344482466925
0007c0 7d 4b 1a 90 e4 28 92 3f 4b d2 bf c1 6f ca b2 3f
       0.01773411874325913 0.07340143661696989
0007d0 4d d9 bc c9 b7 ab 8a bf cd 21 c6 37 4a 6a 83 bf
       -0.013022838443799723 -0.009480075671277977
0007e0 b5 5a 42 6b 49 b9 b6 3f 5c 6b e3 d9 68 66 94 bf
       0.08876475208885888 -0.019921911524629507
0007f0 b5 7e 93 a6 f3 a8 b5 3f 1b 45 f9 2b 70 83 a5 bf
       0.08460924927521314 -0.04201841866291486

policy_graph_hap0.weight_u f8 [1]
000000 00 00 00 00 00 00 f0 bf
       -1.0

policy_graph_hap0.weight_v f8 [264]
000000 e5 08 7c 81 f3 11 b1 bf ca aa d5 8d 32 0e b0 bf
       -0.0666801634907049 -0.06271663630256366
000010 fe a4 d9 be 66 e5 a5 3f 3b 1b 18 5a 3d 6b 97 3f
       0.0427658184024242 0.022870024322425336
000020 f6 a1 9b 67 6b 2a b0 bf 0d f4 58 78 98 da 90 bf
       -0.06314727096071934 -0.01645887598555267
000030 ba 2d ed ff 8f de a3 bf 49 15 a3 6e 2a 11 bf 3f
       -0.038807392111802355 0.12135567856883712
000040 db 5a 88 6f f5 f6 a8 3f b2 8a ad b3 11 f9 b7 3f
       0.04875914560778024 0.09364424359004422
000050 62 39 f6 78 1e 40 b9 bf a1 04 48 82 03 17 b1 bf
       -0.09863462880296006 -0.06675741129585556
000060 32 49 d3 2c dc ea b2 3f ca 14 b0 f8 55 8e c5 3f
       0.07389618009918733 0.16840624468765092
000070 32 22 75 55 58 3e 9a 3f 25 a4 08 78 d7 1c a0 3f
       0.025628452506938078 0.03147004451995653
000080 c1 57 f7 c9 e0 10 a5 bf ab 1d 77 bf 06 9b 93 bf
       -0.04114439454467301 -0.01914606612788609
000090 be 8b f2 f8 38 7c c4 bf 88 86 63 59 86 5a a5 bf
       -0.16004097133290246 -0.04170627442523506
0000a0 0e 77 53 72 07 5b b2 bf 14 13 c1 63 00 e2 9b 3f
       -0.07170149365580533 0.027229314888489745
0000b0 52 29 b5 22 bb a9 ae 3f 1f ce 22 9f 88 03 a3 3f
       0.05988869475057136 0.0371363348253022
0000c0 0b 66 9f 14 e3 9c 79 bf e8 66 be 9b 91 4b 81 3f
       -0.006253134759356192 0.008444917264387411
0000d0 51 af d9 d9 45 e3 b2 bf 04 ac 8e ca 72 87 b2 bf
       -0.07378040855990987 -0.07237927861449128
0000e0 77 fb 7d 32 fa a7 c1 3f bf f6 62 12 b9 c1 9a 3f
       0.1379387613814875 0.026129619357326158
0000f0 6d 18 99 bc 2f 4b 76 bf c3 26 4d 28 9c cf b2 bf
       -0.005442797156837026 -0.07348037704391701
000100 a2 59 40 4e bf 71 7d bf 6c c7 05 af e8 f1 a3 3f
       -0.007188555991908182 0.038954993596134496
000110 40 e7 a6 a0 dd ef a9 bf 46 1a d0 ee 95 53 a8 3f
       -0.050658155308566766 0.04751270809361023
000120 c4 c5 bd a1 28 43 aa bf 86 d1 d4 e6 44 9e 47 3f
       -0.051293630355654624 0.0007207714494712892
000130 56 f6 1c d9 50 0b c3 3f f7 02 a8 3d c1 b7 ac bf
       0.14878283120372043 -0.05608943822517703
000140 2b c2 cc 2b 55 c1 8b 3f 06 b1 bb 58 e1 6d a7 bf
       0.013552346610226603 -0.045760194856344014
000150 17 3d 87 29 a7 f6 ab 3f 76 0c 80 68 a9 d0 bd bf
       0.05461618787705385 -0.11646517564081357
000160 aa 7c 98 73 6f 5c b0 bf 50 76 4f 7f 49 ed ac bf
       -0.06391045162353018 -0.05649785689432163
000170 c3 60 db bd d4 d1 6a bf 2c 93 21 68 3f 93 b2 3f
       -0.0032738833532271762 0.07255932132973147
000180 f0 44 42 9b 9f a7 6c bf ca 65 3f 6d 95 a5 a4 3f
       -0.0034978978456555662 0.04032580336179199
000190 d3 63 ad 1d f7 ba a6 bf 80 5e 4a ae 60 95 c0 3f
       -0.04439518201133521 0.12955864439276255
0001a0 b7 d2 f8 fa 03 60 b9 3f c9 3d ca 42 74 39 9d 3f
       0.09912133099789854 0.02853948266652909
0001b0 1e 7a 14 bf 9f 5a b1 3f 94 39 32 f4 25 14 a7 bf
       0.06778906264342097 -0.04507559400473152
0001c0 91 65 19 70 0f ed 80 3f aa 2d f3 59 1c 7f 98 3f
       0.008264656647201803 0.023922389021021985
0001d0 fb 9f 91 89 46 d0 bb bf 7f 6c 81 cb 3a 8e a2 bf
       -0.10864678248037755 -0.03624137624930145
0001e0 df 6c db 2c 59 bc 78 bf ba eb 74 11 a2 45 b3 3f
       -0.006038997975078091 0.07528126646222591
0001f0 1a 99 9a 6c ad 8b a1 3f 4f 28 19 67 4a 12 a5 bf
       0.034268779284774634 -0.041155171475637624
000200 b2 19 f1 99 eb d7 a4 3f 7c 65 0b ca 76 77 9b bf
       0.040709841291163854 -0.026822906572169
000210 9f a7 e1 b2 e7 02 99 bf 69 34 93 88 51 51 7a bf
       -0.024425144475038626 -0.006425207605571173
000220 ae 17 d4 7d b8 98 ba 3f 54 e2 d1 d2 28 ae 71 3f
       0.10389283248886613 0.004316482035499353
000230 46 a9 d8 95 0a 19 9f 3f a0 99 cf b5 fa b3 8e bf
       0.0303689626654571 -0.01499172084181738
000240 be 34 a9 4e 89 6c a0 3f 9b 6e 48 ac 95 eb bb bf
       0.03207806668488321 -0.10906348663450631
000250 32 8e 2f 7a 84 bb 93 bf 43 17 49 eb 3d 7f b6 bf
       -0.019270009954096952 -0.08787905687594581
000260 56 80 ec 79 fe 88 94 3f a3 6f 93 18 e5 ad 91 bf
       0.02005384081996938 -0.01726491892337346
000270 93 82 c2 ec 59 d7 b4 bf 65 43 7a b0 05 b1 c4 bf
       -0.08141099958676028 -0.1616522895533549
000280 6e bc 88 c7 89 04 a6 3f e9 ef a3 1d f1 39 b7 3f
       0.043003373725121516 0.090727872597142
000290 b3 63 56 13 b6 75 63 bf 79 3b 9a 0b d2 3a 71 bf
       -0.002375465027125456 -0.004206486215152399
0002a0 4f 79 f9 c9 5a 65 9e bf f7 32 7a 38 33 70 78 3f
       -0.029683512284799204 0.005966377335096188
0002b0 34 a4 ac fa 69 7b 5f 3f 87 82 f1 07 ce 00 90 bf
       0.0019215140297979107 -0.015628070101572546
0002c0 e6 31 39 39 be b3 92 bf 7d f7 d7 32 cc a9 98 3f
       -0.018263790362014996 0.02408522663426237
0002d0 4b 81 aa 32 66 af 9b bf 64 48 a8 73 fc 8b 8b bf
       -0.027036282389077553 -0.013450596122343401
0002e0 4b 56 be e2 78 4b a7 3f dd d5 d5 81 15 ab 97 bf
       0.04549768226494829 -0.023113571214215745
0002f0 6c 0d 23 f7 50 73 a6 3f dd 60 da d5 f5 41 b6 3f
       0.043848543327409256 0.08694397421857354
000300 7d 71 89 1f 95 e5 b2 3f c7 69 79 28 87 82 ba bf
       0.07381565113013795 -0.10355419862882008
000310 62 55 4f bf 3a 9b a6 bf 65 bc d5 03 ef a3 a7 bf
       -0.044153056958445416 -0.046172589510086216
000320 ef 2e f0 d5 ae 4e b3 3f d6 91 92 31 49 06 9e 3f
       0.07541935656643849 0.02932085385386237
000330 ef a2 e1 54 d1 35 ac 3f 94 91 42 ca 99 4e b7 bf
       0.055098096477029894 -0.0910431021498595
000340 7d 51 c6 cb 95 fb a8 3f d9 7d f7 1a af d4 c2 bf
       0.048794442295874575 -0.14711560074554944
000350 e3 e4 7e 0d 85 0e 95 bf 09 7d e5 88 fa 6b 95 bf
       -0.0205632009017095 -0.020919718366141846
000360 77 c1 23 8c 10 fa 96 bf 72 db 2d f5 fe af b1 bf
       -0.02243829589218779 -0.06909173475092503
000370 b8 20 73 cd e4 a6 b6 3f f9 38 c0 f9 fe 20 b3 3f
       0.08848409667837387 0.07472222897942861
000380 2e b1 2b 53 51 a3 b1 3f 75 67 dc fd 1b cd a8 3f
       0.06889827995809547 0.048439860094915334
000390 8e 6c cc 13 69 58 ba 3f d3 fa f7 96 0a d8 6c 3f
       0.10291153653490623 0.0035209853010650187
0003a0 4e d9 37 bb 51 51 b1 bf da 94 c3 d1 08 f2 b3 3f
       -0.0676470834804139 0.07791190262976802
0003b0 ac ca f9 ba 3f da ae bf 69 1b fb 1e b5 d2 91 bf
       -0.06025885732096489 -0.0174053478392823
0003c0 f0 30 75 c5 a3 ab b1 bf af 25 83 c1 25 a0 95 bf
       -0.06902526446100743 -0.02111872666936215
0003d0 1a bf 6c 0d 23 a3 a2 bf bc 42 a2 fc 78 47 b1 3f
       -0.03640088595272868 0.06749683540170798
0003e0 96 57 6e dc 68 d6 a5 3f 0c 46 db 23 33 55 aa 3f
       0.042651440532764415 0.051431272627848384
0003f0 d1 1d d6 e9 0c e6 b1 bf d5 af 0b aa 7c 95 a0 3f
       -0.06991654118439007 0.032390495069051596
000400 5c 73 54 0b 3d 6a 93 3f 93 c8 14 46 ae 7f 70 3f
       0.018959955040475193 0.004028015858510997
000410 4f f3 c0 b2 72 44 af bf 4e d0 40 a3 ce 99 a4 3f
       -0.06106909210254818 0.04023595564686443
000420 ec 5e 0f 53 ea a7 a6 3f d1 71 b7 93 60 31 b0 bf
       0.04424984229961901 -0.06325343710290744
000430 d5 ab 71 07 17 f6 b2 bf 1e e0 4e 5b e1 6a a7 3f
       -0.07406753474940271 0.04573730697251242
000440 90 14 2d ef 61 93 88 3f d0 30 b7 7e b5 0d 9c bf
       0.011999859916281858 -0.027396045550447223
000450 a2 a9 a0 53 68 25 ab 3f 81 a8 44 0a 28 61 92 bf
       0.053019771774717186 -0.01794874727890106
000460 4c bf 23 99 d5 95 a0 3f 13 3c 39 3f da 88 79 bf
       0.03239314550762504 -0.006234028365340388
000470 c3 71 80 8c 8a dd 9d 3f e5 c6 90 f0 16 2b 9d bf
       0.029165425134225275 -0.028484686310725222
000480 e0 cf e2 b0 e3 f7 9e bf 19 dc b5 d4 fd ab b9 3f
       -0.03024249808431978 0.10028063243031261
000490 96 26 62 d8 4f 15 b0 3f e6 e4 33 59 87 8b 99 bf
       0.06282519371793635 -0.024946322268964226
0004a0 5a 3b 43 9b 31 3a a6 3f a6 7f 30 aa 6e d2 9a bf
       0.04341273327155788 -0.02619336045984224
0004b0 d4 ba 4b 14 3b b1 c1 bf ca c8 5e e3 16 f1 8a bf
       -0.13822115412718594 -0.01315515405062619
0004c0 dd 40 f6 22 ee f3 ac 3f cf 55 4e 2b db 04 b3 3f
       0.05654853989392603 0.07429284865641893
0004d0 5b e3 5f 0c 92 35 a7 3f cb f8 c7 8e 21 40 80 3f
       0.04533058548981358 0.00793482033713779
0004e0 aa 8f 47 a5 57 ec a8 bf 67 33 6b 70 ae 49 b7 3f
       -0.04867814915249309 0.09096803898428406
0004f0 4f 9b 05 d0 19 90 b9 3f 59 2c ab d6 54 70 9b 3f
       0.0998550541749925 0.026795697786650006
000500 3a 92 98 52 04 94 9f bf bf e4 7e b8 ce 7b a3 3f
       -0.030838077107676144 0.03805395128387933
000510 98 b8 3f 8b 04 14 89 bf 8b 71 71 49 35 ea 80 3f
       -0.012245212077655318 0.008259216598326421
000520 c5 f9 9c 60 2c 37 b0 3f 30 ec d6 f4 ee 68 94 bf
       0.06334187849731794 -0.019931539243526142
000530 b0 77 fc 63 9a 40 a7 bf 45 82 59 ab 89 b9 a6 3f
       -0.045414757447573506 0.044384290854172316
000540 8d ec a4 e9 fc b1 b0 bf 26 39 11 8b b1 e8 82 3f
       -0.0652158804340834 0.009232890182968644
000550 08 12 d3 6c 7c b2 af bf f8 e3 8f b9 83 4c 60 bf
       -0.06190861538337705 -0.0019896099806797594
000560 f9 96 ec 04 2b fc 85 3f 34 d8 b4 a8 e3 2e 9e bf
       0.010734878623746879 -0.029475743457816075
000570 f4 2d f4 98 53 2a b4 bf f7 2a 43 fa fe 72 bb bf
       -0.07877085193847916 -0.10722344980164765
000580 f1 90 5a 0f 6e 71 b1 3f 79 f4 6b b6 bf d5 b0 3f
       0.0681370532498169 0.06576154903082622
000590 c2 8a 5e a4 eb fc 93 bf c3 e5 f1 89 b5 f7 b1 bf
       -0.01951950255137081 -0.07018599145694453
0005a0 39 17 d5 fd 22 56 90 bf b5 55 14 12 46 9f 9b 3f
       -0.01595358537931377 0.026974768498879437
0005b0 72 44 aa d9 ab 61 b3 3f ac 5a 40 61 8c 4e af 3f
       0.07570909561242603 0.06114615142012289
0005c0 fa ea b9 4b 20 23 b3 3f 81 c3 22 6f dc 82 af bf
       0.07475473259720991 -0.06154526573789721
0005d0 b0 41 c4 c9 12 7f 82 3f 2e 58 9b 06 96 24 a9 3f
       0.009031435758999645 0.04910725432061756
0005e0 ac c0 af a3 8a cf 93 3f 26 ea 29 fe 75 2f 9e 3f
       0.019346395722039375 0.029477924001620213
0005f0 90 6a b3 d7 e2 7e bc 3f 49 bc b1 0b f2 5b 81 3f
       0.11131112829336076 0.008476153356438714
000600 c9 97 ec f9 71 29 b6 3f 83 2f 56 bc e7 68 9e bf
       0.08656990386643239 -0.029697056646497366
000610 dd 97 1b 1d b2 b8 b6 bf 9f ae 05 37 1d d0 9b 3f
       -0.08875573359145457 0.027161079867637935
000620 68 ca 6f eb 13 74 96 bf e0 14 db 10 a2 2c aa 3f
       -0.02192717670909375 0.05112177329787371
000630 b0 f5 01 53 41 2e 87 bf c2 e7 d7 b7 9d a8 99 bf
       -0.011318693490688897 -0.025057281824025564
000640 e8 83 60 f4 ea 43 a8 3f bc 3d 8b d8 0b 0e be bf
       0.047393171626261055 -0.11740182911602565
000650 97 da b9 7f 90 97 9e bf a4 ba 58 fb 56 c5 93 bf
       -0.029875047488952502 -0.01930747899148834
000660 a4 a8 38 3b e0 b6 98 bf 09 c8 c6 bc 31 3c a3 3f
       -0.024135116209585875 0.03756862096214781
000670 f7 09 bd 03 99 12 be 3f 8e 3d 24 5a bc 2f b2 bf
       0.11747127858419747 -0.0710408897468737
000680 07 67 81 00 8d df 9f 3f 37 eb b7 93 ae bd 85 bf
       0.03112621608338542 -0.010615695841797652
000690 39 01 46 3b dd fc a3 3f 66 f6 47 47 87 4d 6a bf
       0.039038575635461155 -0.0032107965619150745
0006a0 f3 9a 47 c0 17 87 bd 3f b6 73 90 44 32 9a bc 3f
       0.11534260219887553 0.11172784971172586
0006b0 15 ce 19 30 8f 13 a0 bf eb 39 0c b0 bd 05 c1 3f
       -0.0313992258278654 0.13298770042497607
0006c0 69 85 6e 23 fc 6e a0 3f fa b6 12 a7 04 24 b0 3f
       0.032096747708474656 0.06304959372456756
0006d0 be d3 19 ab 5c 9f c2 3f fc 05 da 02 fb 3a 74 bf
       0.14548834185157306 -0.004939060699713501
0006e0 9d 26 2f 34 b2 99 bd 3f c5 70 6b 5e b7 cd 9e bf
       0.11562646650340942 -0.030081620347900868
0006f0 3c d2 fd e2 be 5f a2 3f 44 5a 37 27 59 ca 99 3f
       0.035886731347009676 0.025185959833687002
000700 a6 cc ed d5 f6 9d 97 bf f6 ab a0 1a de 1d 92 bf
       -0.02306352310865791 -0.017692060828419863
000710 06 dd 8b be a2 81 95 bf c7 8d 90 73 72 18 66 bf
       -0.02100233352663585 -0.0026972041491874796
000720 37 fd 01 e2 ee bf a3 bf 33 a4 80 27 b6 3a b1 3f
       -0.0385737086189643 0.0673021170083679
000730 d9 d2 99 6f 56 5a a3 3f cd 4e 2b 12 93 c9 86 bf
       0.03779859649958945 -0.011126660339335537
000740 f4 5f 90 1c c3 77 b3 3f 53 82 f3 ed 97 1f 8b 3f
       0.07604617545473485 0.013243853520578918
000750 6d e8 dc 89 2d b8 b8 3f 60 dd 11 82 ac 49 02 3f
       0.09656033149522765 3.488118842026144e-05
000760 48 91 32 9f 9c 15 a3 3f 94 e1 b8 30 dc e5 89 3f
       0.03727425998048034 0.012645454632647803
000770 06 78 45 a9 ab ff 83 bf a6 57 4b 39 c3 f1 98 bf
       -0.009764996627094302 -0.02435975110241597
000780 1d af f6 14 d3 dc b3 3f a2 bd 3c b1 23 89 ae bf
       0.0775882650547683 -0.05964004076519848
000790 98 98 69 a8 fe c0 b7 bf 62 2f 24 b3 c6 80 aa 3f
       -0.09278861629136015 0.051763734214630444
0007a0 51 88 27 00 7e 72 9f bf 82 ff 75 45 77 4d 9c bf
       -0.03071019054358032 -0.027639258970793452
0007b0 33 fa bd 67 2f 8e b9 bf 55 dc 6d 92 99 4e a8 bf
       -0.09982582361951912 -0.047474669575358654
0007c0 5b 7c 47 fb df 10 92 bf a2 e9 0d 7d 63 b1 b2 bf
       -0.017642497741573098 -0.07301923564037918
0007d0 12 08 d6 f2 52 88 8a 3f 09 ab f6 09 16 51 83 3f
       0.012955329929130985 0.009432003192008336
0007e0 24 0f 4f 0c 2a 9b b6 bf a9 2e 64 ce 55 4b 94 3f
       -0.08830511856563966 0.01981863090718031
0007f0 99 b1 c4 d8 2c 8c b5 bf 47 36 a6 78 fb 66 a5 3f
       -0.08417015354343106 0.04180131767052991

policy_graph_hap1.bias f8 [1]
000000 2d 25 a0 b1 00 ea aa bf
       -0.05256654899865008

policy_graph_hap1.weight_orig f8 [1, 264]
000000 3f 55 7b 3d c7 a9 a0 bf af 30 f2 7d 42 f6 a1 bf
       -0.032545305495356384 -0.035081937670015655
000010 13 11 fc 74 ab 84 77 bf a6 3e f6 4b 1b a1 b0 3f
       -0.005741758111757161 0.06495829205072798
000020 7e 7b 65 00 f9 61 a2 3f 20 98 ad 9e d8 94 90 bf
       0.035903722093954635 -0.016192803082411555
000030 16 90 e5 85 99 62 b0 3f 01 d0 74 58 83 c8 84 bf
       0.06400451201403742 -0.010148073327037823
000040 f1 90 6b f4 a5 f1 a1 bf c3 67 22 54 93 36 a5 bf
       -0.03504675491947918 -0.04143200304061125
000050 c4 f5 ee 46 3a 68 93 bf 75 82 9e 59 4b 5a 54 bf
       -0.018952284411843726 -0.0012422309723449075
000060 8f d0 4a ce b7 d8 b0 3f 72 1e ba 45 a4 c2 b3 bf
       0.06580685411865005 -0.07718874647445675
000070 b3 ae 5a f9 b2 84 af bf f1 1d a8 7a 57 0c a4 3f
       -0.061559288920162734 0.039156659815542734
000080 31 35 1d 06 ac fb 74 3f 80 5d b0 84 97 18 a0 bf
       0.005122825592321066 -0.031437621066454646
000090 a3 cf 9a a8 09 f8 b0 bf d2 1e 9d fc 01 7a b4 bf
       -0.06628475538565097 -0.07998669068649214
0000a0 cf de cb 5a 11 d1 9b 3f 98 81 d1 af 15 1b 82 bf
       0.027164717833300153 -0.008840722492266903
0000b0 f6 a3 af 1f 5e e7 b8 3f 8d 6e e6 f2 94 a4 b9 3f
       0.09728039048754042 0.10016756944826906
0000c0 2e 9b 8d ae 1b 34 ae bf f7 52 19 b6 5a e8 9d bf
       -0.0589913034989905 -0.029206673969684762
0000d0 42 a2 43 64 d2 71 b0 3f ac fa a0 2e 10 e3 87 3f
       0.0642367834840423 0.011663557456015404
0000e0 73 5d fa 9f e2 da a8 3f 31 20 ec 55 da b0 a8 bf
       0.048544961956561127 -0.04822428034646043
0000f0 c2 c8 4e 25 b5 aa b4 3f 1f b6 ff 24 ce d0 c0 3f
       0.08072979126771698 0.13137223059259015
000100 69 bf 8c 8d dc 06 7f 3f 89 ad 1d 92 97 02 b2 bf
       0.0075749030445847266 -0.07035205189975192
000110 12 a0 e9 7a 4e b7 a1 3f 54 13 3c e2 52 e8 8a bf
       0.03460164308927473 -0.013138434914716925
000120 9e f9 42 b1 04 c0 b3 bf 51 b6 c5 2b 9f 2d a9 bf
       -0.0771487171905165 -0.04917619141893382
000130 e5 17 c7 b1 5b a7 92 3f 21 7e 00 da ce 20 be bf
       0.01821654579705258 -0.11768811056435215
000140 45 e9 36 56 fc a5 71 bf d7 c3 6d 71 6a b1 ad 3f
       -0.004308686914948294 0.057994200083051055
000150 a3 e1 3f c6 2d b2 bb 3f 08 14 18 51 4d d4 b3 bf
       0.10818754282070712 -0.07745822172007888
000160 f9 db 59 1c 88 de 9d bf 86 13 d4 50 3b 89 99 3f
       -0.02916920350113725 0.024937559898734495
000170 b1 2a a7 a2 37 68 c0 3f e7 36 fe 90 5d f4 c0 bf
       0.1281804603771284 -0.132457443044067
000180 5d 55 64 4b cd e8 7b bf b6 05 1f e9 ec 53 bc 3f
       -0.006813814098014373 0.11065560046610909
000190 dd e6 5a 4e d8 e8 92 bf bb 4d 1c cc 6c 91 8c 3f
       -0.0184663579773091 0.013949251154861444
0001a0 8d 68 2b 04 6a 52 9d bf 48 61 d9 18 2a 3b 8c 3f
       -0.02863469744156837 0.013784722216926185
0001b0 6f 74 12 0c 31 11 77 bf a3 cd f4 c9 1c b4 a3 3f
       -0.005631629553275549 0.03848352399145518
0001c0 0d 36 69 91 6b 89 9c 3f 85 c9 58 57 8d 35 bb 3f
       0.027867966413671442 0.1062858904122433
0001d0 5a 18 b2 52 e9 33 b6 3f f4 04 ca 12 2d 24 bc bf
       0.08672960537850952 -0.109927002989952
0001e0 ea 5f fc 52 45 a1 9f bf a9 ee 08 ad 4f 3b b0 3f
       -0.03088863677029955 0.06340501760944996
0001f0 77 b6 d0 72 b9 82 b6 bf 1b bd 17 78 66 8a bc bf
       -0.08793219616992497 -0.11148682052565954
000200 c5 a8 5c c0 57 3b a1 3f 12 83 83 3d 72 1a b3 3f
       0.03365587447326982 0.07462228776740812
000210 29 22 85 3a 11 f0 a5 3f 89 7c 9d 12 0b 96 ae 3f
       0.042847193139611335 0.05973848917232611
000220 bb 9b 8b b3 df 49 ad bf c3 46 f0 97 fe 01 bb bf
       -0.05720423762050283 -0.10549918374479277
000230 3e 84 1a dd 0f 8a a4 bf ef 3a c3 d1 ca 1b b4 bf
       -0.04011582921999278 -0.0785490762820975
000240 6a 99 6d 5c 15 89 8c 3f 9d d5 9f 62 ca 4d 53 3f
       0.013933340914900245 0.0011782146852941996
000250 2a 7b 47 d3 9b ad ba bf 5a 61 d3 37 39 7e bd 3f
       -0.10421155842003019 0.11520726788456184
000260 c1 75 d6 a3 69 2b a2 bf 64 b0 db 97 33 d6 92 3f
       -0.03548746228191702 0.018395239013372935
000270 0e 98 18 43 dd 2b a5 3f f8 25 f9 30 5c d5 ad bf
       0.04135028308910203 -0.0582684335500509
000280 9e 3f 44 a8 db 71 ae 3f 45 cb 85 ee f6 d9 aa bf
       0.05946241787944405 -0.052444187752277695
000290 9d 9d 75 7e b3 7e 70 3f 87 2a 7b 9f 39 3c b6 bf
       0.004027081631057608 -0.08685646194059347
0002a0 a2 a8 d3 52 91 42 ad bf bf cf 45 da b3 0c a1 bf
       -0.05714849601811635 -0.033300037760369154
0002b0 21 5d 8e 29 19 4e 5e 3f a7 2d 03 aa 51 9b a7 3f
       0.0018496747709145294 0.0461068649325072
0002c0 1a 16 0d 6b 97 3a 91 bf 54 99 0b 05 01 d8 a0 bf
       -0.016825071247941727 -0.03289797960842358
0002d0 7e 6d ee 9d f9 c5 a3 3f 61 0b ad 36 6f f8 a1 3f
       0.03861980488656068 0.03509852926665392
0002e0 3d 04 81 1c 85 94 90 3f f0 08 c2 5d 83 82 a5 3f
       0.016191558708900756 0.04201136130815708
0002f0 64 25 3e 06 6d f4 78 3f b0 d7 20 cc 83 88 a3 bf
       0.006092477680689743 -0.038150900524143494
000300 33 a9 dd c0 c8 e6 ad 3f bc 79 1f 54 89 6a b5 bf
       0.05840136865920655 -0.08365686706336012
000310 66 4d 19 58 85 cf af 3f 5f f2 b0 5b f0 c9 97 bf
       0.062130133632900805 -0.023231273266207327
000320 89 ee 0f 7c c4 c9 37 bf fd db 4a f2 5e 03 71 bf
       -0.00036297842967745374 -0.00415360535105602
000330 1d ce fa a2 bc c3 8e bf fd cb b7 13 61 51 94 3f
       -0.015021775935884435 0.019841687038887546
000340 1e 69 5d c1 db 79 aa 3f e1 bb c8 84 3a 44 a0 3f
       0.0517109559575195 0.03177054282092918
000350 0e 14 d1 fb 47 a1 b1 3f ad e8 93 56 97 e1 a8 bf
       0.06886720559948875 -0.048596123999190645
000360 24 b2 fc 95 74 06 b4 3f 89 76 15 6b e3 b9 b6 bf
       0.0782235017947604 -0.0887739311633259
000370 8f 37 2e 3a 7c 87 bc bf be e8 51 b4 2d 56 ab bf
       -0.11144234104560112 -0.053391865026200844
000380 0f 77 58 64 14 3d 56 bf a8 fb d5 17 44 a4 b7 bf
       -0.0013573359623317326 -0.09235025007181596
000390 21 26 8a 0c e4 fd aa bf 67 bb 67 15 f9 2f b0 3f
       -0.05271828320571737 0.06323200962627383
0003a0 ea b6 52 c5 28 9f b1 bf d9 73 5c de 97 f1 95 bf
       -0.06883482758959372 -0.02142941755947789
0003b0 48 57 4a 03 ab e2 ad 3f 8c f2 de e4 76 9b a1 bf
       0.05836996474424311 -0.034389224470463636
0003c0 29 ca ca d8 3c b8 b0 bf da 8f 1c cf c2 f4 ab bf
       -0.0653112439420417 -0.05460175302712829
0003d0 8d f9 53 b7 c3 eb ac bf 31 43 a5 4f 12 31 ac 3f
       -0.056486240509900566 0.05506188604579732
0003e0 27 f4 22 60 ff 07 bc bf 51 1f fd dd 69 bc 99 bf
       -0.10949703309138724 -0.02513280312930927
0003f0 30 18 d5 52 11 8b 94 3f 9e 4c 1d 7e 73 1f c0 bf
       0.02006175106114244 -0.12595981271679063
000400 e4 4a 3e 02 d0 30 ad 3f 32 74 04 3e 37 45 ba bf
       0.05701303508171465 -0.10261864914032584
000410 f5 89 94 d5 9d f6 0c 3f c8 9d a0 1a 38 ed 92 3f
       5.5243198128235924e-05 0.01848304426689909
000420 85 e9 10 78 98 af ae 3f 3e 9f 0f c3 72 7f 8f 3f
       0.05993343797350107 0.015379807069578196
000430 c5 23 dc 49 a9 d7 b6 bf 27 eb 46 9a 59 1b a7 bf
       -0.08922823003025744 -0.045130539019245845
000440 64 41 a0 e0 41 53 99 3f 9c ef b1 d5 dd 96 96 3f
       0.024731664023478386 0.02205988518515732
000450 7d 15 4c 36 38 1b c5 bf 28 08 d7 02 0c b7 b5 bf
       -0.16489317561369524 -0.08482432431540643
000460 4d 2a 4e 05 8d 6b b6 bf 18 0c e4 b2 b8 1c b7 bf
       -0.08757859591984492 -0.090282004999651
000470 6e 5d 4a 0b 2c e0 93 bf 2e f5 92 0d 25 ce a5 3f
       -0.019409835995785434 0.04258838453959367
000480 4d 4f 45 8f d2 8c b2 3f af af aa 16 1e d1 a4 bf
       0.07246128080197174 -0.04065794016545909
000490 9e ff 46 b5 53 60 9e bf a4 0e bb 07 85 63 7e bf
       -0.029664333285608906 -0.007419128083430291
0004a0 71 0f 73 63 a0 4a b3 bf dc 22 f3 44 f7 ad bd 3f
       -0.07535746028866953 0.11593575890868685
0004b0 c0 c4 b0 6f 70 66 b5 3f 51 a6 f7 86 58 65 b4 bf
       0.08359434820956135 -0.07967141432859505
0004c0 40 cc c9 1b ec f8 a7 bf 46 60 18 81 e3 ce c0 bf
       -0.046821001426814224 -0.1313137417171239
0004d0 89 27 f7 97 47 17 a8 3f 10 02 51 68 4b 1a b3 bf
       0.047052609730214696 -0.07461997315204649
0004e0 3b 25 74 a8 da 8c a4 bf a7 58 af 87 53 81 a2 3f
       -0.04013713175124641 0.03614293128309614
0004f0 46 e5 36 ba 2e 35 5c bf f7 97 7a e2 a5 58 ab 3f
       -0.0017216640779749866 0.05341070546755582
000500 57 e1 05 73 2f b0 af bf 4a da e4 44 9c c7 ba 3f
       -0.06189106253708825 0.10460831338864654
000510 38 68 c0 46 15 0a 7c 3f 0a 1f 73 11 de b6 b5 bf
       0.006845553503831474 -0.08482158590333824
000520 60 a5 8f 96 46 ff b9 3f 77 10 38 d0 62 1a 83 3f
       0.1015514485913136 0.009327671031322133
000530 31 a7 76 6c 42 52 c8 bf dd bf 81 42 8b 34 85 bf
       -0.1900103597266081 -0.010354125945212839
000540 3c 87 73 17 57 82 69 bf ee df 75 41 35 ec 7b 3f
       -0.003113908863824925 0.006817062406632586
000550 5a 02 94 52 f1 fb b3 3f 0b b3 44 20 c5 6e a9 bf
       0.07806309000080472 -0.04967323321247904
000560 4d 60 eb 75 b5 b8 b3 3f 05 de 38 c1 6a 0e 99 bf
       0.07703718308346304 -0.024469059031813973
000570 7c 63 3d 32 37 dc 94 bf b9 4e fa 36 d2 68 b9 3f
       -0.02037130588664436 0.09925569383841094
000580 f0 07 04 65 b1 d4 a8 bf 87 87 0c ea 31 a6 b0 3f
       -0.048497718411468216 0.06503593410573504
000590 f4 f2 b0 36 72 e9 90 3f 57 68 e9 d4 72 27 84 3f
       0.016515526378713966 0.009840867159415163
0005a0 96 d7 76 07 4a b6 ab bf 8d b2 46 68 44 d8 b4 bf
       -0.05412513104549459 -0.08142497583203064
0005b0 9f 6d d3 ff d1 47 c4 3f 81 0c 5c c2 0e 4b b4 3f
       0.15844178191660505 0.07927028889757716
0005c0 c2 74 a7 4c 3d 17 b2 bf 17 17 ae 0b c5 37 a5 3f
       -0.07066710587919814 0.04144111411646472
0005d0 52 75 11 53 40 08 b1 3f a9 72 4a 2c 0e 19 b2 3f
       0.06653215435058726 0.07069481450384764
0005e0 27 3c 2d 84 d7 b1 b2 3f 06 3b ed d6 40 60 ab bf
       0.07302615143747514 -0.05346872924439165
0005f0 c7 c0 f5 39 63 0b af 3f c0 74 31 23 59 e1 b5 bf
       0.06063375551718902 -0.08546979054650006
000600 4a 91 6e 54 d4 18 a5 3f 4b 0a fc 2e 24 a0 5c bf
       0.04120505839026352 -0.001747165046197668
000610 9f f8 96 67 3f 08 bf bf f1 bb 78 a4 20 28 aa 3f
       -0.12121959952398463 0.05108739860258272
000620 f2 e5 94 7e 82 6a ac 3f 76 c1 98 7e 46 7f af bf
       0.05550010485826452 -0.06151790900583169
000630 2a 36 37 2b 75 63 91 3f 8c 3b dc d2 d0 a3 98 bf
       0.016980963480639634 -0.024062407369509084
000640 c7 75 b8 61 1d 71 a4 bf c6 f5 b0 d4 8b a9 a2 bf
       -0.03992549722554944 -0.03644978495911348
000650 2d c7 73 0d a4 64 8e bf 82 ae 95 14 f7 94 82 3f
       -0.01484039465001138 0.009073190990157135
000660 fd 06 ac ba 6c 6d a1 3f 91 d7 1f f7 e7 09 95 bf
       0.03403796938620294 -0.020545601328158695
000670 ac b8 21 65 0d 8a a9 3f a4 0e 5d c3 9a 7b 7f bf
       0.04988138064878575 -0.00768623785353709
000680 22 8e af 0b 22 60 80 bf f4 c5 51 33 60 d9 7a 3f
       -0.007995859128590747 0.006554961951324757
000690 52 09 b6 23 47 40 90 bf ef a4 d7 3b 47 ac b9 bf
       -0.015870200686103182 -0.10028500758166435
0006a0 b0 0f 26 a8 07 d1 b3 bf c9 41 fa 9d 85 63 a6 bf
       -0.0774082932967406 -0.043728042158480536
0006b0 b4 94 12 ae 7e ba ae 3f 5b 79 94 db a9 05 c2 3f
       0.06001659274014895 0.14079783651045372
0006c0 d9 7c d7 df 95 14 b0 bf 48 3f 29 16 3f ef c0 bf
       -0.06281410899053998 -0.13230122167669323
0006d0 e5 89 af 67 8d 50 b5 3f 25 b0 7b 26 19 c8 9b 3f
       0.0832603815211211 0.02713050172216937
0006e0 3d 33 41 3d 2b d1 a6 bf 43 66 9f 80 b4 44 b3 bf
       -0.04456458208787815 -0.07526710643960492
0006f0 c8 b1 f8 14 57 57 a4 3f 54 fd 04 99 48 3e ae 3f
       0.03972885256766606 0.059068936041962644
000700 a8 d3 c1 d7 8e ae 90 3f 08 4c be c3 55 c3 82 3f
       0.01629088584782648 0.009161634479630379
000710 4d b4 bf c3 66 bd aa 3f 3a e8 11 c5 c9 c3 aa 3f
       0.052226268191454574 0.0522749951423553
000720 f8 64 67 7e a7 26 7f 3f d7 17 1a 92 22 74 92 3f
       0.007605222961921891 0.018021145026544474
000730 07 14 54 82 6a dc a3 bf 27 5e f4 2a cc 6e 91 bf
       -0.038791016015274286 -0.017024221536386854
000740 46 4f 08 e0 8a 66 a1 3f 68 f6 c4 73 22 1c b0 bf
       0.03398546204348789 -0.06292929960633276
000750 9e bf fd 92 20 07 a4 3f 88 b6 88 08 30 ab 92 bf
       0.0391168765480636 -0.018231153984905407
000760 23 7b 93 3a b4 80 9e 3f d7 1b 06 89 c6 94 76 3f
       0.029787841868592523 0.005512977150266849
000770 b7 c2 91 0b 28 5b 9e bf cf 91 74 72 9f d2 a1 3f
       -0.029644609171046023 0.03481004974517853
000780 0c 2f 42 bd 4f 78 b1 bf 50 b4 3f ee 9c 5b a2 bf
       -0.0682420575196227 -0.03585520180045221
000790 05 c8 69 ae 0c 28 b1 bf 4b c1 90 16 a6 e7 b0 3f
       -0.06701735742697686 0.06603467989839833
0007a0 c3 78 7f 08 6d 7e ac bf 67 29 65 97 dc a3 aa bf
       -0.05565205315336776 -0.05203141544423567
0007b0 7d 05 77 69 ea b8 74 bf 89 66 b5 a7 de 92 72 3f
       -0.0050591618268652746 0.00453459715512284
0007c0 5d 86 ad 3e 9f f8 bf 3f 60 a0 35 b2 3f c8 b3 3f
       0.12488742141933913 0.0772743043977484
0007d0 1b a9 a4 db d7 24 92 bf 80 fb 11 81 ba 52 b8 bf
       -0.017718670636136396 -0.09501233721856117
0007e0 99 68 10 84 b6 43 5b 3f 6f 0f 36 41 d0 ea 76 3f
       0.0016640932447047673 0.005595029349368604
0007f0 e5 30 f8 85 ab 92 9b 3f 8a 6f ba 14 8f 00 b2 3f
       0.026926689197396398 0.07032102829037803

policy_graph_hap1.weight_u f8 [1]
000000 00 00 00 00 00 00 f0 bf
       -1.0
